SELU/13262_9.model (torch_old, 128569 bytes, 8 tensors)

weight f4 [50, 33]
-0.017155444 -0.061045524 0.112826586 -0.46179974 -0.4378034 0.019558957 0.20857754 1.1590946
0.5507498 0.2112712 -0.3133187 -0.90208024 -0.96074396 -1.3974599 -1.5624261 -1.8389422
-1.7426718 -1.8494018 -2.063376 -1.2917029 -0.8756914 -0.43782732 0.0565792 0.046703745
0.5890059 0.73902464 1.5315953 1.6894659 1.5592078 1.1746197 1.080684 -0.13260691
-0.16846456 -0.059264995 -0.003616154 -0.16238715 1.4158099 0.906136 -0.009457942 0.015082805
-0.15141925 0.13977385 0.38044617 0.71331954 0.9357536 1.3679504 1.6518357 1.8176141
1.9351404 1.2811623 1.4473792 1.4634284 1.0634452 0.71722233 0.635309 0.29225293
0.086969845 -0.0871938 -0.12973066 -0.5360756 -0.44702002 -0.63514906 -0.47676513 -0.2673155
0.046194885 0.3699205 -0.00956439 -0.17719218 0.026469037 1.3020637 0.8884432 -0.16195296
-0.10442797 -0.0988751 0.088750124 0.30575755 0.46828085 0.9251991 1.3641872 1.8962226
1.7262315 1.9362887 1.3608856 1.2561456 1.3745592 0.9792451 0.86440897 0.6088348
0.2305522 0.12595946 -0.16980447 -0.2980536 -0.41392416 -0.52561873 -0.6225429 -0.39735222
-0.072744474 0.16285865 0.40030912 0.083634906 -0.32457867 0.108027056 1.4380609 1.0029267
-0.04900734 -0.12535393 -0.093100585 0.0184864 0.21956682 0.6018082 0.98416436 1.3511125
1.8289828 1.8358085 1.7874188 1.3718425 1.3540581 1.4735576 1.1091129 0.80265707
0.5598756 0.043605242 0.34380826 -0.03317311 -0.08135313 -0.64982736 -0.59007823 -0.5671839
-0.46393296 -0.22046323 0.23207186 0.34167415 0.17576963 -0.09232441 0.08828652 -0.73666984
-1.352689 -0.1907958 -0.05712567 0.7356025 0.4647089 0.17345415 -0.5446455 -0.44555578
-1.2723618 -1.6170862 -1.9026254 -1.8595164 -1.441628 -1.5419967 -1.2368646 -1.4768401
-1.224421 -0.9708101 -0.2545037 -0.12246889 -0.0075211446 0.2355379 0.6607983 0.81389976
0.8076651 0.7245186 0.95471174 0.10298802 0.1385414 0.2538638 -0.04518919 -0.05685162
-0.37913275 -0.9399994 -0.08808779 -0.20558658 0.9333865 0.4613278 -0.13608567 -0.47097048
-0.80006313 -0.9511426 -1.2323725 -1.7442607 -1.7824992 -1.9301813 -1.8648984 -1.6447253
-1.4568992 -0.8486693 -0.4408713 -0.32673892 -0.096062146 0.62913996 1.285248 1.0420829
1.4134837 1.2519275 1.1081687 0.7415334 0.011386683 -0.16022225 0.09481063 0.097874954
0.04031596 -0.81226385 -1.1815412 -0.15085149 0.063389465 0.5445526 0.22403565 0.08880545
-0.37604216 -0.7819065 -1.1384813 -1.5042154 -1.7670635 -1.9375603 -1.4061894 -1.0112447
-1.1221546 -1.3536665 -1.3492398 -0.5183187 -0.12895337 0.07781933 0.26524612 0.252374
0.6169579 0.82574666 0.9868488 0.8487771 0.6100682 -0.08148434 0.13517651 0.01877936
0.037178624 0.11681789 1.3572841 0.9629447 0.13078369 -0.1320924 -0.10627287 0.21505809
0.1819865 0.5210976 0.79866296 1.4795934 1.717191 1.7562063 2.040503 1.3006073
1.3189894 1.395763 0.9513205 0.6578144 0.3926355 0.43203914 0.20798533 -0.08696032
00000000: 9389 8cbc df0a 7abd a011 e73d 0471 ecbe
00000010: c427 e0be 1b3a a03c 5a95 553e 365d 943f
00000020: f0fd 0c3f 7a57 583e 4f6b a0be bbee 66bf
00000030: 51f3 75bf f7df b2bf 94fd c7bf 7562 ebbf
00000040: df0f dfbf 33b9 ecbf 5a0e 04c0 8556 a5bf
00000050: 502d 60bf e72a e0be 97bf 673d 6d4c 3f3d
00000060: 17c9 163f b830 3d3f 510b c43f 6b40 d83f
00000070: 1f94 c73f f059 963f da53 8a3f 1bca 07be
00000080: f981 2cbe dabf 72bd fffc 6cbb d148 26be
00000090: 4239 b53f 87f8 673f 7cf5 1abc df1d 773c
000000a0: a60d 1bbe e020 0f3e d7c9 c23e 1c9c 363f
000000b0: 8c8d 6f3f 0019 af3f 5a6f d33f 94a7 e83f
000000c0: aeb2 f73f 20fd a33f b943 b93f 9f51 bb3f
000000d0: f91e 883f e29b 373f 9ca3 223f 2da2 953e
000000e0: 3f1d b23d aa92 b2bd 1dd8 04be 403c 09bf
000000f0: cfdf e4be 2199 22bf 8f1a f4be 94dd 88be
00000100: d936 3d3d 3866 bd3e f6b3 1cbc de71 35be
00000110: 98d5 d83c 06aa a63f 0371 633f ffd6 25be
00000120: 55de d5bd 077f cabd a0c2 b53d 418c 9c3e
00000130: 82c2 ef3e d9d9 6c3f b09d ae3f 6cb7 f23f
00000140: 27f5 dc3f 4fd8 f73f 8031 ae3f 61c9 a03f
00000150: 8ef1 af3f cfaf 7a3f e849 5d3f 99dc 1b3f
00000160: e015 6c3e 84fb 003e 39e1 2dbe 7b9a 98be
00000170: deed d3be f38e 06bf f95e 1fbf c071 cbbe
00000180: 0efb 94bd 6bc4 263e 51f5 cc3e c748 ab3d
00000190: 2d2f a6be 4a3d dd3d 6112 b83f e75f 803f
000001a0: ecbb 48bd c85c 00be 85ab bebd ca70 973c
000001b0: 20d6 603e 1a10 1a3f 32f2 7b3f 41f1 ac3f
000001c0: 1c1c ea3f c6fb ea3f 24ca e43f 8998 af3f
000001d0: c751 ad3f 899d bc3f 69f7 8d3f ef7a 4d3f
000001e0: 0254 0f3f 699b 323d a307 b03e 87e0 07bd
000001f0: 789c a6bd 165b 26bf 5e0f 17bf f732 11bf
00000200: 9f88 edbe 1dc1 61be 3fa4 6d3e eaef ae3e
00000210: f4fc 333e 9514 bdbd 90cf b43d 6596 3cbf
00000220: ea24 adbf f95f 43be 9bfc 69bd 7250 3c3f
00000230: 53ee ed3e f79d 313e e36d 0bbf e31f e4be
00000240: c0dc a2bf aefc cebf 3b89 f3bf a204 eebf
00000250: 4487 b8bf 2660 c5bf 9451 9ebf 1909 bdbf
00000260: d4b9 9cbf 0387 78bf 4f4e 82be f8d0 fabd
00000270: ef73 f6bb d930 713e 142a 293f bc5b 503f
00000280: 24c3 4e3f 0d7a 393f fd67 743f 62eb d23d
00000290: ccdd 0d3e 70fa 813e 4d18 39bd 3fdd 68bd
000002a0: b01d c2be cda3 70bf 5f67 b4bd 4a85 52be
000002b0: 6bf2 6e3f 2833 ec3e 0b5a 0bbe 0b23 f1be
000002c0: f0d0 4cbf 157e 73bf 62be 9dbf ef43 dfbf
000002d0: ef28 e4bf 2e10 f7bf feb4 eebf 5c86 d2bf
000002e0: ac7b babf 6442 59bf e2b9 e1be 534a a7be
000002f0: 3bbc c4bd 510f 213f 0283 a43f f962 853f
00000300: 09ed b43f 293f a03f 79d8 8d3f 22d5 3d3f
00000310: 368f 3a3c 4d11 24be 132c c23d aa72 c83d
00000320: 5922 253d 86f0 4fbf be3c 97bf d078 1abe
00000330: 56d2 813d cd67 0b3f 9a69 653e a2df b53d
00000340: 9988 c0be 062b 48bf c1b9 91bf 218a c0bf
00000350: 232f e2bf fa01 f8bf 04fe b3bf 7770 81bf
00000360: c3a2 8fbf f244 adbf e4b3 acbf 89b0 04bf
00000370: 5a0c 04be be5f 9f3d 57ce 873e 2a37 813e
00000380: f4f0 1d3f 2264 533f 1fa2 7c3f 7549 593f
00000390: 6e2d 1c3f 43e1 a6bd b66b 0a3e 2cd7 993c
000003a0: 9d48 183d 383e ef3d 7cbb ad3f 8b83 763f
000003b0: 29ec 053e 3b43 07be 97a5 d9bd 3038 5c3e
000003c0: ab5a 3a3e a766 053f 2d75 4c3f 5163 bd3f
000003d0: eacc db3f 5ecb e03f 9a97 0240 4d7a a63f
000003e0: a5d4 a83f 5da8 b23f be89 733f 8666 283f
000003f0: 8507 c93e 3c34 dd3e 1bfa 543e 4118 b2bd

bias f4 [50]
-0.595911 1.7745106 1.6255358 1.7773924 -1.1952125 -0.79877645 -1.0178356 1.7174428
-1.1660424 -0.9649921 -1.0202066 -0.24428494 1.521226 1.4605852 1.6228456 1.7251903
-1.2718194 -1.1944888 -0.89165527 1.5123403 1.7382053 1.8007327 1.7310749 -1.23479
-0.5195603 -1.264304 1.636682 -0.46728486 -1.0948424 -1.0978767 -1.3311149 -1.0333353
-1.2376537 1.5486578 -1.2622559 1.6273897 -1.0765926 1.6933056 -1.431259 1.7467692
1.7888062 1.7363437 -0.7247042 -0.6870435 -0.3926631 -1.0431304 -1.4037586 -1.3224185
1.4442929 -0.6002656
00000000: a08d 18bf 2a23 e33f 8f11 d03f 9881 e33f
00000010: b9fc 98bf 9d7c 4cbf 7048 82bf 2ad5 db3f
00000020: e140 95bf b909 77bf 2196 82bf d525 7abe
00000030: 89b7 c23f 75f4 ba3f 68b9 cf3f 09d3 dc3f
00000040: faca a2bf 02e5 98bf 8543 64bf 5e94 c13f
00000050: 837d de3f 697e e63f dd93 dd3f 990d 9ebf
00000060: e701 05bf b7d4 a1bf cc7e d13f f63f efbe
00000070: cc23 8cbf 3987 8cbf f961 aabf 5544 84bf
00000080: 706b 9ebf 6b3a c63f 9a91 a1bf 4e4e d03f
00000090: c9cd 89bf 3dbe d83f 7f33 b7bf 2296 df3f
000000a0: 9af7 e43f 8340 de3f 3786 39bf 15e2 2fbf
000000b0: 230b c9be 4c85 85bf 5dae b3bf 0245 a9bf
000000c0: 97de b83f 02ab 19bf

weight f4 [100, 50]
-2.4708614 0.4652018 0.44239792 0.3498482 -1.1533217 -2.600593 -1.3146882 0.61854714
-1.222203 -1.5654048 -1.100937 -2.2827408 0.39570504 0.45245767 0.55329 0.48383555
-1.3021042 -1.3733938 -1.647618 0.4842847 0.33123928 0.34659907 0.37003666 -1.3975008
-2.4474447 -1.4136401 0.4348023 -2.18118 -1.3951511 -1.0775782 -1.5807137 -1.1216456
-1.5623204 0.42692766 -1.3509935 0.46783423 -1.5181568 0.46813658 -1.7167188 0.45303598
0.52734333 0.39407608 -2.3515005 -2.3525565 -1.9732777 -1.2659203 -1.3982755 -1.4340209
0.38411626 -2.1410682 -2.6536996 0.5725426 0.38392395 0.54863876 -0.880435 -2.3678427
-1.2903528 0.42119253 -1.4051038 -1.795923 -1.0742501 -2.2631717 0.33949164 0.2599775
0.4071076 0.30856976 -1.198306 -1.2501758 -1.6079688 0.3925337 0.44283986 0.36494052
0.40562412 -1.5148835 -2.4722188 -1.6417538 0.44193074 -2.1947265 -1.1659514 -0.9590637
-1.5225364 -1.1040957 -1.4935559 0.47407997 -1.3962508 0.30749092 -1.5119208 0.49468333
-1.6991674 0.4497097 0.55004245 0.45600486 -2.2671676 -2.2964659 -1.9725361 -1.3845335
-1.6453781 -1.3773713 0.559278 -2.2043972 2.8588467 0.16461287 0.26729694 0.19635874
1.5258653 2.718107 1.5979308 0.103999816 1.6443082 1.8770235 1.2860256 2.6541765
0.20320053 0.35945812 0.22951545 0.19148222 1.3914859 1.8516654 1.843058 0.2212854
0.29640704 0.17940654 -0.048457686 1.9741391 2.4888031 2.0597467 0.19052902 2.6604886
1.5978215 1.2307351 1.9047141 1.2315301 1.7494828 0.3865126 1.756252 0.15030968
1.865082 0.24118322 2.0332193 0.17857441 0.20922652 0.49607056 2.7196608 2.621911
2.1302595 1.5399868 1.7392424 1.7132272 0.17668602 2.422818 -0.024282137 -0.012895899
-0.09463182 0.168137 0.08570751 -0.1277279 -0.09777921 0.07972433 0.030812973 -0.054766722
0.02131904 0.031813648 -0.06484114 0.12625448 -0.14882664 0.20542768 -0.09377145 -0.033961352
0.06511106 0.011132059 -0.036997024 -0.21500435 -0.0038291935 0.2260597 0.044461768 -0.22315398
0.038773607 -0.016454296 0.053616147 -0.15937111 -0.12550448 -0.06841554 -0.093860894 -0.06864578
-0.1255397 0.12210909 0.036614373 -0.019632436 -0.012173867 -0.16758502 0.08834254 -0.032240007
-0.010634896 0.21355732 0.076229796 0.13004023 0.0039509675 0.0076994835 -0.20692304 -0.008078994
-2.5617597 0.4281774 0.5529395 0.6316129 -0.97614604 -2.4279058 -1.1142521 0.4465422
-1.247489 -1.4903672 -1.1765268 -2.249937 0.6149064 0.3896895 0.39303234 0.4685146
-1.3871382 -1.3792385 -1.6410264 0.35330853 0.37404525 0.45607433 0.41351736 -1.3800447
-2.2588825 -1.5947835 0.4440571 -2.068189 -1.3626173 -0.9322363 -1.6308771 -0.957609
-1.6370373 0.51233786 -1.5202502 0.25222814 -1.5513673 0.48682693 -1.6106442 0.48293132
0.45642892 0.56776077 -2.3557353 -2.2956069 -2.0329134 -1.4704996 -1.4845026 -1.3147589
0.45485574 -2.1900449 -2.44231 0.5444858 0.3590496 0.62147 -1.0016114 -2.2565768
00000000: 9822 1ec0 ee2e ee3e fb81 e23e 4e1f b33e
00000010: 0ca0 93bf 1e70 26c0 b447 a8bf 1b59 1e3f
00000020: 2671 9cbf 2f5f c8bf 81eb 8cbf 6d18 12c0
00000030: da99 ca3e 88a8 e73e 6aa4 0d3f 4bb9 f73e
00000040: 5aab a6bf 5ecb afbf 26e5 d2bf 2af4 f73e
00000050: 3298 a93e 6f75 b13e 7275 bd3e 4ee1 b2bf
00000060: efa2 1cc0 29f2 b4bf 689e de3e 7498 0bc0
00000070: 5094 b2bf 15ee 89bf d454 cabf 1592 8fbf
00000080: 1dfa c7bf 4396 da3e 5bed acbf f887 ef3e
00000090: f652 c2bf 99af ef3e 71bd dbbf 55f4 e73e
000000a0: f9ff 063f 57c4 c93e fc7e 16c0 4990 16c0
000000b0: 5d94 fcbf ad09 a2bf b1fa b2bf ff8d b7bf
000000c0: e3aa c43e 4307 09c0 37d6 29c0 2792 123f
000000d0: ae91 c43e 9773 0c3f 3064 61bf bc8a 17c0
000000e0: 482a a5bf 8ca6 d73e 71da b3bf cee0 e5bf
000000f0: 0781 89bf ced7 10c0 d9d1 ad3e c51b 853e
00000100: 6870 d03e dbfc 9d3e 1762 99bf c305 a0bf
00000110: ecd1 cdbf 2dfa c83e e8bb e23e 7cd9 ba3e
00000120: f7ad cf3e b4e7 c1bf d538 1ec0 fd24 d2bf
00000130: bf44 e23e 6676 0cc0 e53d 95bf 3385 75bf
00000140: 79e2 c2bf 0253 8dbf d72c bfbf 9cba f23e
00000150: 59b8 b2bf 736f 9d3e 9f86 c1bf 2247 fd3e
00000160: 517e d9bf 5a40 e63e 95cf 0c3f 7879 e93e
00000170: 4619 11c0 4cf9 12c0 107c fcbf 6538 b1bf
00000180: c09b d2bf b44d b0bf d82c 0f3f d814 0dc0
00000190: 58f7 3640 4790 283e 25db 883e 4412 493e
000001a0: 8e4f c33f 77f5 2d40 ff88 cc3f dbfd d43d
000001b0: b178 d23f 4e42 f03f 7d9c a43f 07de 2940
000001c0: cd13 503e e50a b83e 1906 6b3e ea13 443e
000001d0: 361c b23f 5f03 ed3f 53e9 eb3f a498 623e
000001e0: aac2 973e 59b6 373e 917b 46bd 97b0 fc3f
000001f0: 8d48 1f40 e4d2 0340 0a1a 433e 7245 2a40
00000200: 6a85 cc3f ba88 9d3f accd f33f c7a2 9d3f
00000210: 0def df3f fbe4 c53e decc e03f c8ea 193e
00000220: 02bb ee3f bcf8 763e 4420 0240 36dc 363e
00000230: 7a3f 563e f6fc fd3e ec0e 2e40 64cd 2740
00000240: 2c56 0840 4a1e c53f 7f9f de3f 074b db3f
00000250: 2eed 343e 730f 1b40 55eb c6bc 5249 53bc
00000260: 54ce c1bd 1b2c 2c3e 6b87 af3d 1acb 02be
00000270: 7740 c8bd 8246 a33d 7d6b fc3c 1253 60bd
00000280: 44a5 ae3c 074f 023d 6ecb 84bd db48 013e
00000290: 0366 18be a25b 523e 3f0b c0bd 0f1b 0bbd
000002a0: f358 853d 3d63 363c 318a 17bd 1a2a 5cbe
000002b0: 35f3 7abb 327c 673e 8b1d 363d 7a82 64be
000002c0: 13d1 1e3d 29cb 86bc 9b9c 5b3d 2e32 23be
000002d0: 3f84 00be 721d 8cbd 243a c0bd 2996 8cbd
000002e0: 7b8d 00be 5514 fa3d f4f8 153d 34d4 a0bc
000002f0: e674 47bc 689b 2bbe efec b43d 190e 04bd
00000300: fd3d 2ebc c5ae 5a3e 5e1e 9c3d 4429 053e
00000310: 1e77 813b f34b fc3b a2e3 53be c25d 04bc
00000320: dff3 23c0 113a db3e 718d 0d3f 62b1 213f
00000330: b5e4 79bf cf62 1bc0 d09f 8ebf 2ea1 e43e
00000340: b8ad 9fbf 5ac4 bebf 6e98 96bf f8fe 0fc0
00000350: 816a 1d3f 6285 c73e 893b c93e 25e1 ef3e
00000360: bf8d b1bf e38a b0bf 270d d2bf dbe4 b43e
00000370: dc82 bf3e 9382 e93e 8cb8 d33e 4ea5 b0bf
00000380: 8891 10c0 de21 ccbf 745b e33e 355d 04c0
00000390: 3e6a aebf 0aa7 6ebf 95c0 d0bf dd25 75bf
000003a0: 708a d1bf 9328 033f 8f97 c2bf 0c24 813e
000003b0: 3493 c6bf 6141 f93e 9729 cebf c642 f73e
000003c0: 0db1 e93e c558 113f 5ec4 16c0 39eb 12c0
000003d0: 411b 02c0 5539 bcbf 2e04 bebf 054a a8bf
000003e0: dae2 e83e b229 0cc0 cf4e 1cc0 6c63 0b3f
000003f0: 59d5 b73e a818 1f3f cd34 80bf c16b 10c0

bias f4 [100]
1.6928 1.608982 -0.9040713 -0.0132332 1.6077185 1.621698 1.509167 0.068953715
-0.10670239 0.12263681 0.03191407 -0.059434272 -0.07082968 -0.009704708 1.4684428 1.5208316
1.5231615 1.5257354 0.03098321 -0.07789129 1.678229 -0.10577893 -0.13638894 0.071846426
-0.151636 -0.11242374 1.6721836 0.05907777 0.08488159 -0.069754824 0.066180155 1.6211392
1.4161694 -0.0381971 0.119441025 1.6294218 1.6824434 1.619611 1.6841065 0.021860404
-0.06980791 1.4117688 1.4706053 -0.05510124 -0.108968236 1.577609 1.6073484 -0.12820089
-0.027638167 1.5186881 -0.024446808 -1.3622344 0.06255165 1.4636205 1.4306663 -0.13150704
0.109367564 0.096418664 0.06667232 1.5616415 1.4976411 0.061669588 1.6348175 1.6377048
0.11862339 0.07288036 -0.119752094 1.666727 -0.002881797 0.12506604 -0.058256667 1.5655355
1.6715243 -1.381603 -0.040996715 1.5950425 1.4864638 1.5006734 0.0061473697 1.5448058
1.6177319 1.505995 -0.030267946 1.6917065 -0.08824262 -0.12308706 1.5102259 -0.114187166
0.022588812 1.6359369 1.4331219 1.6649271 1.5258992 1.6324506 0.0066648363 -0.12354525
0.110412195 -0.13432832 -0.09725612 1.4471607
00000000: acad d83f 1ff3 cd3f 3771 67bf 10d0 58bc
00000010: b8c9 cd3f cd93 cf3f 622c c13f 9b37 8d3d
00000020: c886 dabd 0229 fb3d 54b8 023d 5a71 73bd
00000030: 270f 91bd 7f00 1fbc eff5 bb3f 9caa c23f
00000040: f5f6 c23f 4c4b c33f 80d0 fd3c 7885 9fbd
00000050: 35d0 d63f a0a2 d8bd 8ba9 0bbe 3824 933d
00000060: 7846 1bbe 6b3e e6bd 1d0a d63f 88fb 713d
00000070: 66d6 ad3d 9edb 8ebd 7689 873d 7d81 cf3f
00000080: 0a45 b53f 9074 1cbd 7f9d f43d e590 d03f
00000090: 4e5a d73f 6a4f cf3f cd90 d73f 9714 b33c
000000a0: 73f7 8ebd d7b4 b43f cb3c bc3f d6b1 61bd
000000b0: bd2a dfbd 17ef c93f 98bd cd3f 1847 03be
000000c0: 7069 e2bc 5f64 c23f ac44 c8bc b25d aebf
000000d0: 141b 803d eb57 bb3f 1320 b73f c8a9 06be
000000e0: 1afc df3d 2677 c53d 7f8b 883d dee3 c73f
000000f0: b4b2 bf3f 4099 7c3d b341 d13f 50a0 d13f
00000100: d2f0 f23d 4c42 953d 9640 f5bd 4f57 d53f
00000110: 88dc 3cbb 5011 003e 8b9e 6ebd 7863 c83f
00000120: 82f4 d53f 5ed8 b0bf 2cec 27bd 5a2a cc3f
00000130: 7244 be3f 1116 c03f e06f c93b 32bc c53f
00000140: d711 cf3f 72c4 c03f 7cf4 f7bc d789 d83f
00000150: 8cb8 b4bd 1215 fcbd 154f c13f f6da e9bd
00000160: 2c0c b93c 6166 d13f 8a70 b73f 551c d53f
00000170: aa50 c33f 24f4 d03f b364 da3b 4b05 fdbd
00000180: ca1f e23d 5d8d 09be 372e c7bd 903c b93f

weight f4 [200, 100]
-0.19605362 -0.3315235 0.063949496 -0.12830411 -0.06901931 -0.16587888 0.098554425 -0.10250487
-0.02692161 -0.1913483 0.13431393 0.033161096 0.049607377 -0.0371744 0.13784139 -0.0007175986
-0.15364848 -0.0024049047 -0.03531699 -0.0175256 0.034777056 0.045940574 0.026525259 -0.16582875
0.1482908 -0.2057148 -0.18475673 0.23890193 -0.10512555 -0.04949844 -0.14517653 -0.05675424
0.0662226 0.120551065 0.14956 -0.05417116 0.039323468 -0.077359766 -0.09265527 0.0033257552
0.09809919 -0.091171406 -0.040516913 -0.07453828 0.20168395 -0.026213218 0.06191504 0.12209218
0.09099957 0.10175408 0.17660247 -0.07708195 -0.15483454 -0.13285966 -0.065674305 -0.13953279
-0.05527095 -0.011814735 0.10205819 0.044300742 -0.11322065 -0.15126799 -0.15807457 -0.15239991
0.055774428 0.00063306553 -0.15139385 0.040593375 -0.09085199 0.0980997 -0.041355204 -0.00808957
-0.18890919 0.016402233 -0.04896006 -0.19895883 -0.009695407 -0.105237395 -0.045959454 0.015039009
-0.17874892 -0.005608807 -0.14520685 -0.11291523 -0.0014267658 0.046477616 -0.03367674 0.095433824
0.110807136 -0.011119967 0.049451735 0.14204875 -0.07473609 -0.15629305 -0.0104146255 0.037142757
-0.09872883 -0.016536882 -0.21338971 0.008326126 0.021189086 -0.0012313195 0.03692484 -0.07273856
0.051821083 0.04591154 -0.18856178 -0.029945152 -0.08112522 0.2868478 0.119983315 0.12041726
-0.103571214 0.05162979 -0.23139505 0.19321722 0.16381018 -0.054448597 -0.06963446 0.03231442
0.11092935 -0.25220296 0.079382055 0.085217044 -0.077944614 -0.014670633 -0.021626415 -0.032150436
-0.11201718 0.00970704 0.21096073 -0.09791634 -0.026440475 -0.036131106 0.26052245 -0.10542783
-0.087618895 -0.015660249 0.2400469 -0.03414117 -0.03428007 -0.15750809 -0.016270518 -0.023191152
-0.028670788 -0.06864435 -0.027240496 0.12815045 0.05208003 -0.040172357 -0.054299172 -0.06019455
-0.17284743 -0.27887014 -0.0142731555 0.063730575 0.079927765 0.047711194 0.010370549 -0.058610067
-0.11619415 -0.107054316 0.1292398 -0.08889759 -0.017906496 0.30002153 -0.09038468 0.105863065
0.023875797 0.15361528 -0.056098443 -0.068342194 0.050686955 0.119767 0.01639227 -0.026838101
-0.046302997 0.041633848 -0.061225235 0.08359423 -0.124776594 0.04393548 0.070623055 -0.039399683
0.1072427 0.089362286 -0.1078395 0.12592885 -0.048893344 -0.041148476 0.20156388 -0.030953402
-0.068804234 0.030847272 0.18670002 0.20512396 0.029667327 -0.04416291 -0.15187232 -0.09720789
0.0607514 -0.13656229 0.036722895 -0.18682896 0.0069551347 0.020643601 -0.16460618 -0.03332351
0.15478839 0.026253838 -0.110707395 0.049547832 0.07505459 0.035054255 -0.081444114 -0.042368032
-0.14153421 0.10980615 -0.029262189 -0.07392332 0.1028245 0.0026942953 0.009811246 -0.20964341
0.03713012 -0.07764292 0.0076633496 -0.10943258 -0.084636144 -0.07374365 -0.068762444 -0.030214507
-0.03188609 -0.066143714 -0.06214312 -0.0011400284 -0.077905096 0.1349233 -0.18833546 0.17987308
-0.054405957 0.012628664 0.059191667 -0.023704158 0.05347236 -0.008936368 -0.09776844 0.000901659
0.07146358 0.27626297 0.02725187 -0.029424567 0.06745276 -0.027585687 -0.035798527 0.085758865
00000000: 48c2 48be 73bd a9be f4f7 823d 2762 03be
00000010: ff59 8dbd 27dc 29be e7d6 c93d 13ee d1bd
00000020: b58a dcbc cff0 43be 9789 093e eed3 073d
00000030: 1b31 4b3d 2f44 18bd 4b26 0d3e 3a1d 3cba
00000040: 0756 1dbe 9b9b 1dbb 8ca8 10bd d991 8fbc
00000050: 6372 0e3d 2f2c 3c3d 804b d93c 03cf 29be
00000060: 8bd9 173e e7a6 52be de30 3dbe b5a2 743e
00000070: 104c d7bd e0be 4abd 28a9 14be 2277 68bd
00000080: b79f 873d 7ae3 f63d 4226 193e 94e2 5dbd
00000090: a511 213d cc6e 9ebd 0cc2 bdbd eaf4 593b
000000a0: 3ae8 c83d 13b8 babd 10f5 25bd 87a7 98bd
000000b0: 3d86 4e3e 1abd d6bc a09a 7d3d 770b fa3d
000000c0: fc5d ba3d 7164 d03d 47d7 343e 24dd 9dbd
000000d0: f28c 1ebe 5d0c 08be 4080 86bd afe1 0ebe
000000e0: cb63 62bd 9792 41bc e203 d13d b274 353d
000000f0: 3ae0 e7bd ffe5 1abe 4dde 21be b90e 1cbe
00000100: ba73 643d 4ff4 253a fd06 1bbe 3d45 263d
00000110: 9c10 babd 7fe8 c83d 1364 29bd 1e8a 04bc
00000120: 6971 41be fa5d 863c 588a 48bd ddbb 4bbe
00000130: 7cd9 1ebc b486 d7bd fb3f 3cbd 2d66 763c
00000140: f509 37be 15ca b7bb 1bb1 14be 1a40 e7bd
00000150: 5102 bbba 505f 3e3d 9ff0 09bd cf72 c33d
00000160: daee e23d 8630 36bc e78d 4a3d 3a75 113e
00000170: 3c0f 99bd 490b 20be 1ba2 2abc 0123 183d
00000180: 5732 cabd 5b78 87bc d582 5abe 4e6a 083c
00000190: bc94 ad3c 3a64 a1ba 803e 173d f4f7 94bd
000001a0: 5842 543d bd0d 3c3d 5716 41be 894f f5bc
000001b0: fb24 a6bd b7dd 923e d0b9 f53d 539d f63d
000001c0: 251d d4bd c279 533d d3f2 6cbe bcda 453e
000001d0: dbbd 273e 7e05 5fbd 839c 8ebd 205c 043d
000001e0: ed2e e33d bf20 81be 0f93 a23d 4686 ae3d
000001f0: 6da1 9fbd 185d 70bc e129 b1bc 2db0 03bd
00000200: 4369 e5bd 470a 1f3c 1706 583e 5d88 c8bd
00000210: b299 d8bc 36fe 13bd 3363 853e 8cea d7bd
00000220: 8971 b3bd ec49 80bc dbce 753e 9dd7 0bbd
00000230: 4269 0cbd cd49 21be c049 85bc 5ffb bdbc
00000240: 00df eabc 6995 8cbd 7627 dfbc df39 033e
00000250: df51 553d c58b 24bd cf68 5ebd 8f8e 76bd
00000260: ebfe 30be 11c8 8ebe f4d9 69bc 2d85 823d
00000270: 2bb1 a33d d06c 433d 3ce9 293c 1c11 70bd
00000280: 33f7 edbd 4b3f dbbd 7057 043e f10f b6bd
00000290: a5b0 92bc 6c9c 993e 9a1b b9bd bcce d83d
000002a0: 2d97 c33c 534d 1d3e 7bc7 65bd fef6 8bbd
000002b0: 209d 4f3d 6748 f53d 1549 863c 94db dbbc
000002c0: 36a8 3dbd 4188 2a3d 50c7 7abd 7433 ab3d
000002d0: df8a ffbd b1f5 333d d2a2 903d 9061 21bd
000002e0: 10a2 db3d 9303 b73d f5da dcbd 7ef3 003e
000002f0: 6344 48bd 4e8b 28bd c366 4e3e fd91 fdbc
00000300: 3ce9 8cbd 6bb3 fc3c 4a2e 3f3e 040c 523e
00000310: e508 f33c 2be4 34bd 6b84 1bbe ee14 c7bd
00000320: 76d6 783d fcd6 0bbe bf6a 163d 1750 3fbe
00000330: e6e7 e33b c51c a93c 868e 28be 3c7e 08bd
00000340: d980 1e3e 4a12 d73c 8fba e2bd abf2 4a3d
00000350: 39b6 993d 0d95 0f3d 2ccc a6bd 1a8a 2dbd
00000360: 58ee 10be 0ce2 e03d 42b7 efbc 1c65 97bd
00000370: a795 d23d c692 303b 59bf 203c c3ac 56be
00000380: c115 183d 4003 9fbd d61c fb3b 301e e0bd
00000390: b755 adbd e906 97bd 53d3 8cbd 6a84 f7bc
000003a0: fd9a 02bd 5b76 87bd c989 7ebd 016d 95ba
000003b0: b58c 9fbd 5529 0a3e 03db 40be a630 383e
000003c0: c8d8 5ebd 75e8 4e3c f672 723d 392f c2bc
000003d0: d505 5b3d d869 12bc d23a c8bd 505d 6c3a
000003e0: 7f5b 923d 5772 8d3e 503f df3c ca0b f1bc
000003f0: ac24 8a3d 61fb e1bc 7aa1 12bd 58a2 af3d

bias f4 [200]
0.06473578 -0.046133135 -0.0003747926 0.9936322 0.007856413 0.028417654 1.2596203 -0.06571481
-0.010017656 0.03668154 1.5536339 -0.0011042905 1.4233339 0.063754454 1.5413514 1.1893874
1.379018 -0.049653374 1.2597613 0.017866628 0.029340768 0.005037614 -0.11411184 -0.08279076
0.06474697 -0.06404958 -0.032583345 1.1727943 1.0770923 0.015228715 1.2795715 1.0335946
0.06449693 -0.10307321 1.34237 1.608817 1.0205867 1.185047 1.4204965 -0.04336218
1.4942628 1.1251156 0.051744137 0.0045620315 0.009496192 1.0837687 1.3240138 -0.030186856
1.1125604 0.018791169 1.1468976 -0.08249832 0.0059882817 1.4380834 1.4184443 -0.04114436
1.4983838 -0.055794373 1.0857269 1.4300091 1.2657661 -0.024278508 -0.035568215 1.2987305
0.04480419 1.4343076 -0.08511177 1.6176404 1.3018832 1.0865613 -0.08216449 0.056946162
1.0190883 -0.034564067 1.4833881 1.2756876 0.035660587 0.014671805 0.057503488 1.3612618
-0.004885841 1.5488858 1.3127367 -0.056479342 1.1092961 1.3513588 1.261243 -0.007510436
-0.008969989 0.027534068 1.1459887 -0.017644562 1.3552287 0.05203509 0.054405924 -0.061870094
1.2257957 -0.07814444 -0.08040537 -0.06000888 1.534033 1.3717982 0.018072309 -0.021531258
-0.009826415 1.2813419 -0.031165125 1.4808602 1.0810174 -0.06406646 -0.083917774 1.3724178
-0.092106566 0.028254293 1.4880639 -0.027891232 -0.03625245 -0.09257208 1.1260917 -0.08246385
1.2726096 0.681654 -0.07173521 -0.108202204 0.047894232 1.0884588 -0.043016605 1.1523396
0.0657257 -0.048216198 0.075308554 1.5677754 -0.10079792 -0.08361057 -0.05057631 0.057376027
0.05555733 0.064196125 0.032668997 1.3193308 1.1297979 0.05406739 0.0073487004 1.5002729
1.4430153 1.4235332 -0.06336026 -0.06189173 -0.009440743 -0.11295815 1.6291656 1.4633167
1.0062808 1.5414796 0.047827885 1.0225236 -0.09051155 1.3486195 -0.03450362 1.304138
0.052668203 -0.04413867 -0.042953018 -0.005495538 0.0027186228 1.5088502 1.2604743 0.032480575
-0.006699172 0.057262916 1.1091928 1.5448041 0.0023192011 1.5418957 0.0075699748 1.2695289
0.0688521 1.5194919 1.4795679 -0.06548779 1.2144421 0.06584575 -0.055747226 1.351789
-0.063689455 -0.01579472 -0.027983025 1.1068383 -0.06306065 0.035573624 1.2967999 -0.0070094345
0.044580538 1.1789116 1.5270947 0.040604733 1.2664803 1.2063521 -0.040342383 -0.058982164
00000000: 3194 843d 19f6 3cbd d07f c4b9 ae5e 7e3f
00000010: 2fb8 003c 24cc e83c 3d3b a13f 7c95 86bd
00000020: 1821 24bc 623f 163d 7add c63f d7bd 90ba
00000030: ce2f b63f b291 823d 014b c53f d93d 983f
00000040: a983 b03f 5661 4bbd dc3f a13f 095d 923c
00000050: 0d5c f03c 9212 a53b 78b3 e9bd 348e a9bd
00000060: 0f9a 843d 6d2c 83bd 1d76 05bd 201e 963f
00000070: 29de 893f dc81 793c 00c9 a33f d44c 843f
00000080: f716 843d 0c18 d3bd c8d2 ab3f b7ed cd3f
00000090: 96a2 823f 9faf 973f d4d2 b53f 8b9c 31bd
000000a0: 0144 bf3f ca03 903f a9f1 533d 187d 953b
000000b0: eb95 1b3c efb8 8a3f 4979 a93f 6d4a f7bc
000000c0: 6168 8e3f f0ef 993c 8acd 923f e1f4 a8bd
000000d0: 5939 c43b 1e13 b83f 958f b53f fd86 28bd
000000e0: 0acb bf3f a488 64bd 19f9 8a3f 8a0a b73f
000000f0: a004 a23f b9e3 c6bc faaf 11bd cd3c a63f
00000100: 9984 373d 6497 b73f 144f aebd d70e cf3f
00000110: 1ca4 a63f 7114 8b3f db45 a8bd 6140 693d
00000120: 7c71 823f 0d93 0dbd a9df bd3f bb49 a33f
00000130: d610 123d 0362 703c c788 6b3d d43d ae3f
00000140: 6819 a0bb e441 c63f c207 a83f e256 67bd
00000150: 6afd 8d3f 53f9 ac3f 6970 a13f 1a1a f6bb
00000160: dcf6 12bc 208f e13c c2af 923f 548b 90bc
00000170: 2278 ad3f bf22 553d bfd8 5e3d 7f6b 7dbd
00000180: e0e6 9c3f 310a a0bd 92ab a4bd dfcb 75bd
00000190: 315b c43f 1597 af3f 610c 943c 5262 b0bc
000001a0: f9fe 20bc 0303 a43f 014e ffbc d48c bd3f
000001b0: c75e 8a3f 4735 83bd 15dd abbd 63ab af3f
000001c0: 5ea2 bcbd 8c75 e73c e178 be3f 277c e4bc
000001d0: 737d 14bd 6e96 bdbd c623 903f cfe2 a8bd
000001e0: dfe4 a23f e080 2e3f e9e9 92bd 1e99 ddbd
000001f0: be2c 443d 9e52 8b3f 2e32 30bd dd7f 933f
00000200: 329b 863d 597e 45bd 5f3b 9a3d ddac c83f
00000210: 246f cebd 053c abbd 1b29 4fbd 2003 6b3d
00000220: 1590 633d 4279 833d edcf 053d d5df a83f
00000230: 389d 903f c475 5d3d 5ecd f03b f108 c03f
00000240: bab4 b83f 5636 b63f 06c3 81bd 2f82 7dbd
00000250: 59ad 1abc 9a56 e7bd 8088 d03f f64d bb3f
00000260: cfcd 803f 344f c53f 2ce7 433d 0ee2 823f
00000270: 1f5e b9bd 909f ac3f ab53 0dbd feed a63f
00000280: 9dba 573d c0ca 34bd 81ef 2fbd ea13 b4bb
00000290: ec2a 323b 0122 c13f 3957 a13f 5a0a 053d
000002a0: ba84 dbbb 858c 6a3d 08fa 8d3f 24bc c53f
000002b0: bdfd 173b d75c c53f 8d0d f83b ec7f a23f
000002c0: 5402 8d3d b67e c23f 7b62 bd3f 761e 86bd
000002d0: d772 9b3f 23da 863d 3457 64bd 6c07 ad3f
000002e0: 9e6f 82bd ee63 81bc a83c e5bc e1ac 8d3f
000002f0: f125 81bd a6b5 113d 8afd a53f 66af e5bb
00000300: 159a 363d 93e6 963f d777 c33f 2651 263d
00000310: 071c a23f bf69 9a3f 0e3e 25bd 4897 71bd

weight f4 [20, 200]
-0.22082229 -0.3468708 -0.5781607 0.22914784 -0.51594365 -0.70139164 0.33142295 -0.37357774
-0.36115617 -0.30907297 0.3190291 -0.33144775 0.3546781 -0.4260746 0.43538243 0.28606224
0.30657643 -0.41875806 0.3975901 -0.51723945 -0.5721359 -0.34489852 -0.35924748 -0.20652683
-0.31010428 -0.527097 -0.56214565 0.24722359 0.30324453 -0.36575976 0.1431379 0.23810545
-0.35088214 -0.3626385 0.3314668 0.4260973 0.28599864 0.24941623 0.29907653 -0.37034556
0.16488425 0.4511045 -0.40852144 -0.38532177 -0.5248627 0.4015686 0.3494923 -0.3929502
0.35047442 -0.35336462 0.29912576 -0.4280385 -0.50145495 0.2808156 0.42016616 -0.4387459
0.47242552 -0.29381305 0.40751123 0.4257521 0.24935141 -0.21740754 -0.2795327 0.45266336
-0.43097726 0.26598728 -0.33851245 0.3204389 0.23877764 0.34098577 -0.3863457 -0.47435072
0.29434 -0.4018763 0.24725705 0.40930617 -0.243589 -0.36950916 -0.5277146 0.19680539
-0.32675108 0.20917164 0.102977484 -0.25438324 0.34455132 0.440585 0.22230649 -0.38105896
-0.29256204 -0.47120425 0.3971968 -0.3950581 0.45239788 -0.47865874 -0.46127772 -0.23686327
0.36766097 -0.4204835 -0.43555668 -0.47177923 0.35083085 0.2628344 -0.26770067 -0.34282327
-0.24668866 0.16718735 -0.5072743 0.37086168 0.28473344 -0.3593115 -0.55189383 0.3632055
-0.3638713 -0.47311583 0.25837985 -0.34116215 -0.34584826 -0.43389156 0.45017722 -0.24565196
0.2832057 0.46132195 -0.33153293 -0.44679362 -0.39361233 0.23352452 -0.30070344 0.3057289
-0.37844366 -0.60240245 -0.21247585 0.3761674 -0.1764123 -0.34779075 -0.3097408 -0.35707843
-0.32338548 -0.5146136 -0.476055 0.43663418 0.079250164 -0.31035757 -0.32769108 0.24541953
0.4473283 0.38314703 -0.36379692 -0.38021353 -0.40205935 -0.48784015 0.3413599 0.44430247
0.41150165 0.28685224 -0.2989947 0.21539024 -0.5006156 0.44485512 -0.43956336 0.49862406
-0.5514235 -0.38267848 -0.38922516 -0.5185975 -0.4708078 0.11347896 0.34199893 -0.32716084
-0.4064693 -0.3320219 0.38690153 0.18012573 -0.38514075 0.18983859 -0.3768155 0.24002917
-0.36247173 0.39253348 0.34781024 -0.51293135 0.35948756 -0.3109709 -0.35913897 0.3808891
-0.34049955 -0.47573704 -0.4409795 0.36679247 -0.61266184 -0.32963943 0.41194066 -0.44096625
-0.3413779 0.3854691 0.48830995 -0.50668406 0.37773046 0.21723479 -0.40889734 -0.39869863
-0.52382934 -0.39725748 -0.5585535 0.46525696 -0.44426182 -0.30471203 0.2699768 -0.42399082
-0.5408807 -0.25402167 0.18913037 -0.43082288 0.34599987 -0.49334893 0.30009612 0.28875813
0.28266045 -0.29308805 0.36879817 -0.49474853 -0.5658334 -0.43809268 -0.35727844 -0.2509196
-0.3174995 -0.40878585 -0.2866467 0.36248264 0.3603356 -0.45453903 0.34731996 0.26114172
-0.33755127 -0.4811066 0.118356556 0.30933794 0.29159164 0.3305554 0.40180898 -0.2892597
0.5287465 0.3501761 -0.31167033 -0.34154204 -0.3388534 0.42889872 0.3584093 -0.08758666
0.38822916 -0.4409193 0.26699734 -0.48102042 -0.5188307 0.39427614 0.4715923 -0.47773096
00000000: 3d1f 62be 0d99 b1be 5702 14bf bba5 6a3e
00000010: e214 04bf 678e 33bf 45b0 a93e 9545 bfbe
00000020: 76e9 b8be d03e 9ebe c857 a33e 85b3 a9be
00000030: 5e98 b53e 7326 dabe 72ea de3e c076 923e
00000040: 96f7 9c3e 7567 d6be ee90 cb3e ce69 04bf
00000050: 8077 12bf 8a96 b0be 49ef b7be c57b 53be
00000060: fdc5 9ebe d4ef 06bf c7e8 0fbf 2e28 7d3e
00000070: de42 9b3e dd44 bbbe be92 123e ead1 733e
00000080: d3a6 b3be c1ab b9be 04b6 a93e 6d29 da3e
00000090: 6a6e 923e f866 7f3e 8f20 993e ef9d bdbe
000000a0: 6bd7 283e 2bf7 e63e b929 d1be e548 c5be
000000b0: 675d 06bf 669a cd3e a8f0 b23e c530 c9be
000000c0: 6271 b33e 35ec b4be 0327 993e dd27 dbbe
000000d0: 5a5f 00bf 10c7 8f3e 0520 d73e 4da3 e0be
000000e0: c2e1 f13e aa6e 96be 50a5 d03e 2efc d93e
000000f0: fa55 7f3e 15a0 5ebe e91e 8fbe 7ec3 e73e
00000100: 0da9 dcbe 7c2f 883e 8151 adbe 9110 a43e
00000110: 2082 743e b095 ae3e 1bcf c5be 19de f2be
00000120: bcb3 963e bbc2 cdbe f430 7d3e 9490 d13e
00000130: 656f 79be 4e30 bdbe 4e18 07bf 5a87 493e
00000140: eb4b a7be 1731 563e dce5 d23d 853e 82be
00000150: 0869 b03e 5b94 e13e 50a4 633e 291a c3be
00000160: b1ca 95be af41 f1be 615d cb3e 0e45 cabe
00000170: b2a0 e73e c212 f5be 982c ecbe 498c 72be
00000180: 0f3e bc3e 9d49 d7be 4901 dfbe 0c8d f1be
00000190: 1aa0 b33e 3b92 863e 1010 89be 8886 afbe
000001a0: f49b 7cbe 2933 2b3e bbdc 01bf 95e1 bd3e
000001b0: 95c8 913e adf7 b7be ea48 0dbf 12f6 b93e
000001c0: 574d babe 3d3c f2be 5d4a 843e ceac aebe
000001d0: 0613 b1be 0927 debe a17d e63e 308c 7bbe
000001e0: 5600 913e 6432 ec3e afbe a9be 22c2 e4be
000001f0: 8e87 c9be 0d21 6f3e cdf5 99be 8088 9c3e
00000200: 5ec3 c1be 0c37 1abf 4593 59be 0399 c03e
00000210: 6da5 34be a111 b2be 5996 9ebe fcd2 b6be
00000220: c892 a5be b8bd 03bf 7bbd f3be 848e df3e
00000230: e94d a23d 30e7 9ebe 20c7 a7be 424f 7b3e
00000240: 3708 e53e d92b c43e 9743 babe 59ab c2be
00000250: b9da cdbe 2fc6 f9be bac6 ae3e 9d7b e33e
00000260: 58b0 d23e 4cde 923e d515 99be 428f 5c3e
00000270: 5828 00bf 0dc4 e33e 730e e1be a74b ff3e
00000280: 172a 0dbf 6fee c3be 8548 c7be cec2 04bf
00000290: b80d f1be a867 e83d 7c1a af3e a081 a7be
000002a0: be1c d0be c6fe a9be f517 c63e e172 383e
000002b0: 2b31 c5be 0c65 423e f6ed c0be 35ca 753e
000002c0: e595 b9be 26fa c83e 2f14 b23e 784f 03bf
000002d0: c10e b83e 9437 9fbe 10e1 b7be e503 c33e
000002e0: f555 aebe ce93 f3be 11c8 e1be 39cc bb3e
000002f0: 68d7 1cbf 80c6 a8be e3e9 d23e 54c6 e1be
00000300: 16c9 aebe 355c c53e c303 fa3e 0cb6 01bf
00000310: e365 c13e cc72 5e3e fe5a d1be 3a22 ccbe
00000320: ae19 06bf 5565 cbbe 5dfd 0ebf 2936 ee3e
00000330: 4976 e3be 3703 9cbe 663a 8a3e 5315 d9be
00000340: 2877 0abf 210f 82be 64ab 413e d194 dcbe
00000350: e526 b13e 3b98 fcbe 33a6 993e 1bd8 933e
00000360: dfb8 903e a30f 96be 1dd3 bc3e ae4f fdbe
00000370: 75da 10bf af4d e0be 33ed b6be 8978 80be
00000380: 4b8f a2be 614c d1be 5bc3 92be 5397 b93e
00000390: e87d b83e 57b9 e8be ecd3 b13e 5eb4 853e
000003a0: 85d3 acbe 9b53 f6be ec64 f23d 8b61 9e3e
000003b0: 804b 953e 8f3e a93e e8b9 cd3e d919 94be
000003c0: ee5b 073f 484a b33e 4193 9fbe 99de aebe
000003d0: 317e adbe 9d98 db3e 6c81 b73e a360 b3bd
000003e0: f9c5 c63e 2dc0 e1be e0b3 883e 4f48 f6be
000003f0: 17d2 04bf 90de c93e 8c74 f13e 2799 f4be

bias f4 [20]
0.40638384 0.39143714 0.2698898 0.2480524 0.12163484 0.35367134 0.085866734 0.2434659
0.09795731 0.29207343 0.1635231 0.39402908 0.28040987 0.3141147 1.1764733 0.40899402
1.0149345 0.5787923 0.8842783 0.32930344
00000000: 8b11 d03e 736a c83e ff2e 8a3e 7301 7e3e
00000010: b01b f93d 6914 b53e e6da af3d 204f 793e
00000020: d89d c83d a68a 953e 9972 273e 2ebe c93e
00000030: e291 8f3e a4d3 a03e ad96 963f aa67 d13e
00000040: 60e9 813f bb2b 143f 1060 623f 769a a83e
