SELU/6547_4.model (torch_old, 128569 bytes, 8 tensors)

weight f4 [50, 33]
000000 93 89 8c bc df 0a 7a bd a0 11 e7 3d 5b 12 dc be
       -0.017155444 -0.061045524 0.112826586 -0.42982754
000010 d8 6e ec be 1b 3a a0 3c 5a 95 55 3e 21 9d 93 3f
       -0.46178317 0.019558957 0.20857754 1.1532327
000020 b8 ab 01 3f 1d ad 61 3e 71 2e a4 be 6a c3 66 bf
       0.50652647 0.22038694 -0.32066682 -0.9014193
000030 bb 55 76 bf bf 12 b4 bf b0 fb c7 bf f1 8e ea bf
       -0.96224564 -1.4068221 -1.5623684 -1.8324872
000040 f0 a5 de bf d8 f1 ec bf 1c 5f 04 c0 d5 a2 a5 bf
       -1.739439 -1.8511305 -2.068305 -1.2940317
000050 87 2c 60 bf b1 5e de be af 81 a1 3d f3 1a 54 3d
       -0.87567943 -0.4343162 0.07886063 0.051783513
000060 91 43 18 3f 9d 1a 43 3f 2b 70 c6 3f 48 41 d8 3f
       0.594781 0.76212484 1.5502981 1.6894922
000070 c4 dc c6 3f d7 e9 96 3f a8 97 8d 3f 1b ca 07 be
       1.5536122 1.1790112 1.1061907 -0.13260691
000080 e3 95 1b be da bf 72 bd ff fc 6c bb d1 48 26 be
       -0.15193896 -0.059264995 -0.003616154 -0.16238715
000090 12 47 aa 3f c6 f3 21 3f 7c f5 1a bc df 1d 77 3c
       1.3302939 0.63262594 -0.009457942 0.015082805
0000a0 98 b2 c3 be f8 44 1b be d4 3f fa 3e 7a 46 87 3f
       -0.38222194 -0.15163028 0.48876822 1.0568383
0000b0 cc a7 c0 3f de c0 db 3f 6b ce ef 3f 52 1d f9 3f
       1.5051208 1.7168233 1.8734869 1.9462073
0000c0 ed 7d 04 40 dc 2c dd 3f 36 ed d7 3f 7b 2d 9f 3f
       2.070186 1.7279315 1.6869266 1.2435755
0000d0 02 25 e6 3e 3d 67 ac 3d 16 de f5 bb b4 18 b2 3d
       0.4495011 0.08418129 -0.0075032813 0.08696118
0000e0 bf 62 b1 be b9 85 a3 bd 92 60 a3 be 32 97 23 bf
       -0.3464565 -0.0798449 -0.31909615 -0.6390258
0000f0 7f 5b dc be e9 f7 1c bf 7e 85 13 bf 4d 77 05 bf
       -0.43038556 -0.6131578 -0.5762557 -0.52135164
000100 d9 36 3d 3d 23 79 d3 3e f6 b3 1c bc de 71 35 be
       0.046194885 0.41303357 -0.00956439 -0.17719218
000110 98 d5 d8 3c fc ee 9b 3f ef c1 1d 3f ff d6 25 be
       0.026469037 1.2182307 0.61624044 -0.16195296
000120 55 de d5 bd 97 d4 a5 be 2f 4c 4a be 4c e2 d4 3e
       -0.10442797 -0.32388756 -0.19755624 0.415789
000130 c7 99 4f 3f 56 b4 be 3f 59 c0 da 3f 63 49 07 40
       0.8109402 1.4898784 1.708995 2.1138542
000140 d3 33 ed 3f af 56 04 40 50 2d e7 3f ec 52 bf 3f
       1.853144 2.0677907 1.8060703 1.4947181
000150 3e a7 93 3f 08 cf bc 3e 96 34 70 3e 08 fb ec bc
       1.1535413 0.36876702 0.2345756 -0.028928295
000160 2c 31 df 3c bd 24 9b be 1b 33 26 be 60 68 f9 be
       0.027245127 -0.30301467 -0.16230433 -0.48712444
000170 3d ea 03 bf 79 7a 01 bf 15 09 1a bf 13 f6 fd be
       -0.51529294 -0.50577503 -0.6017011 -0.49601802
000180 23 15 a6 be 6b c4 26 3e dc fb e2 3e c7 48 ab 3d
       -0.32438 0.16285865 0.44332778 0.083634906
000190 2d 2f a6 be 4a 3d dd 3d 62 17 ad 3f fa 7a 3a 3f
       -0.32457867 0.108027056 1.3522761 0.728439
0001a0 ec bb 48 bd c8 5c 00 be d1 bf a5 be eb 3a 8b be
       -0.04900734 -0.12535393 -0.32372907 -0.27193388
0001b0 f7 c0 a8 3e 35 08 72 3f 9c bd c6 3f e1 50 d9 3f
       0.3295972 0.9454377 1.5526614 1.6977807
0001c0 2c 69 03 40 3d 10 fc 3f d4 92 f6 3f 5d b5 e8 3f
       2.0532942 1.9692456 1.9263558 1.8180348
0001d0 06 7d cb 3f b8 23 a0 3f d2 0b fe 3e cb ab 30 3e
       1.5897529 1.25109 0.49618393 0.17253034
0001e0 12 66 a9 bd 8e 61 28 be 57 d7 bf bd e1 c3 cd bc
       -0.082714215 -0.16443464 -0.09367245 -0.025117816
0001f0 47 19 89 be 95 c5 3f bf 3a f9 12 bf 36 6d 0c bf
       -0.26777098 -0.7491086 -0.5741154 -0.5485414
000200 94 14 11 bf d6 65 f4 be 3f a4 6d 3e 3c 04 c5 3e
       -0.56672025 -0.47733945 0.23207186 0.38479793
000210 f4 fc 33 3e 95 14 bd bd 90 cf b4 3d 09 d2 27 bf
       0.17576963 -0.09232441 0.08828652 -0.65554863
000220 74 45 85 bf f9 5f 43 be 9b fc 69 bd dc e5 75 3f
       -1.041182 -0.1907958 -0.05712567 0.9605386
000230 72 f3 48 3f 66 3a 89 3d 34 c7 66 bf 54 b8 84 bf
       0.7849647 0.06700592 -0.9014771 -1.0368752
000240 2c d5 ce bf 3b ea eb bf ba c4 02 c0 b0 c1 04 c0
       -1.6158805 -1.8430856 -2.0432572 -2.0743217
000250 85 f8 f2 bf b6 53 e2 bf b3 02 80 bf 83 fb 58 bf
       -1.8982092 -1.7681797 -1.0000824 -0.84758776
000260 67 69 17 bf e3 da 9d be ed 7e 45 bd 07 ad a4 3e
       -0.59145206 -0.3083106 -0.04821675 0.3216326
000270 6a 6c d1 bc c7 6b cc 3e d2 3d 3a 3f 00 f2 53 3f
       -0.025564391 0.39925978 0.7275058 0.8279114
000280 78 a1 49 3f 17 be 52 3f 4d 63 9f 3f 62 eb d2 3d
       0.78762007 0.82321304 1.2452179 0.10298802
000290 c2 8e c9 3d 70 fa 81 3e 4d 18 39 bd 3f dd 68 bd
       0.09841682 0.2538638 -0.04518919 -0.05685162
0002a0 3f f6 ae be c2 9d 73 bf 5f 67 b4 bd 4a 85 52 be
       -0.34172246 -0.95162594 -0.08808779 -0.20558658
0002b0 46 83 6e 3f 5f 86 e0 3e 49 9d 07 be 50 71 f3 be
       0.9316906 0.43852517 -0.13243593 -0.47547388
0002c0 a4 a9 4c bf 97 8b 73 bf 4e ca 9e bf cf 49 df bf
       -0.7994635 -0.9513487 -1.2405488 -1.74444
0002d0 4f fa e3 bf 8e b0 f6 bf 55 f9 ee bf 37 56 d3 bf
       -1.7810763 -1.927263 -1.866984 -1.6510686
0002e0 56 be ba bf 94 ee 58 bf 2e d1 de be 35 60 9e be
       -1.4589336 -0.8473904 -0.43518966 -0.30932775
0002f0 7f ac bb bd bf e6 22 3f 63 d3 a8 3f 3f 9b 87 3f
       -0.091637604 0.6363334 1.318951 1.0594252
000300 db e1 b4 3f ad b4 9f 3f c9 82 8e 3f c1 85 43 3f
       1.4131426 1.2477013 1.1133662 0.7637597
000310 36 8f 3a 3c 46 c1 0c be 13 2c c2 3d aa 72 c8 3d
       0.011386683 -0.13745603 0.09481063 0.097874954
000320 59 22 25 3d 72 3a 3b bf 92 50 62 bf d0 78 1a be
       0.04031596 -0.73136055 -0.8840419 -0.15085149
000330 56 d2 81 3d 23 d6 3f 3f 84 59 05 3f 76 8a c6 bc
       0.063389465 0.7493612 0.52089715 -0.024235945
000340 a9 ff 3b bf d8 af ac bf 4a d6 bc bf ae 17 dd bf
       -0.7343698 -1.3491163 -1.4752896 -1.7272851
000350 57 35 f4 bf c7 99 09 c0 f3 fc ee bf be 4f 9e bf
       -1.9078778 -2.1500108 -1.8670944 -1.2368085
000360 50 7d 61 bf 72 8d 35 bf 0c 27 37 bf 0b df 02 3e
       -0.88081837 -0.70918953 -0.71543956 0.12780397
000370 43 77 86 3d da 36 ff 3e e4 f1 81 3e 3a 43 d4 3e
       0.06565716 0.49846536 0.2537986 0.4145754
000380 a8 30 30 3f d8 28 53 3f 71 bd 77 3f 8b 27 72 3f
       0.68824244 0.824842 0.9677344 0.9459159
000390 1a 65 63 3f 43 e1 a6 bd 6e 8a c3 3d 2c d7 99 3c
       0.88826144 -0.08148434 0.09547888 0.01877936
0003a0 9d 48 18 3d 38 3e ef 3d 21 e0 a2 3f 3c dc 30 3f
       0.037178624 0.11681789 1.2724649 0.6908605
0003b0 29 ec 05 3e 3b 43 07 be 7e 81 aa be 29 c5 93 bd
       0.13078369 -0.1320924 -0.3330192 -0.0721534
0003c0 39 d7 95 3e 08 00 5d 3f c0 a2 ae 3f 63 cc e9 3f
       0.29265764 0.8632817 1.3643417 1.8265499
0003d0 fc e5 f7 3f a8 fb f0 3f b4 0d 0b 40 84 78 df 3f
       1.9367061 1.8826799 2.1727114 1.7458653
0003e0 d3 7c c7 3f e3 a0 96 3f 87 56 ae 3e 76 da d7 3c
       1.5584968 1.1767849 0.3405039 0.026349287
0003f0 33 a7 7e be cf 8c 67 3e 54 46 62 be 92 a1 a2 bd
       -0.24868469 0.22612308 -0.2209714 -0.07940973

bias f4 [50]
000000 a0 86 12 bf 31 81 c9 3f 96 b7 b6 3f 1f cb c9 3f
       -0.5723667 1.5742551 1.4274776 1.5765113
000010 f8 61 7a bf de 48 44 bf db 43 4e bf da 5e c2 3f
       -0.9780574 -0.76673687 -0.8057229 1.5185196
000020 98 dc 72 bf a2 3d 6c bf 72 93 4e bf d1 32 6a be
       -0.9486785 -0.92281544 -0.80693734 -0.22870947
000030 e0 79 a9 3f 26 97 a1 3f 21 51 b6 3f 6c 1f c3 3f
       1.3240318 1.2624252 1.4243509 1.5243964
000040 5d 45 86 bf 9b 30 78 bf c8 08 59 bf f4 53 a8 3f
       -1.0489918 -0.96949166 -0.84779024 1.315062
000050 4c c3 c4 3f 40 ec cc 3f 4a cf c3 3f ad f2 82 bf
       1.53721 1.6009598 1.5297635 -1.0230309
000060 92 6b fd be 90 fa 85 bf 00 ed b7 3f cd 3d e3 be
       -0.49496132 -1.0467091 1.4369202 -0.44383088
000070 94 3d 5d bf b1 cd 61 bf 35 9c 8b bf e7 60 53 bf
       -0.86422086 -0.88204485 -1.0907046 -0.82569736
000080 17 ad 80 bf c1 e8 ac 3f cc dd 85 bf a9 c1 b6 3f
       -1.0052823 1.3508531 -1.0458312 1.427785
000090 f5 09 5c bf 7a 43 bf 3f 4d 18 99 bf d3 e5 c5 3f
       -0.85952693 1.4942467 -1.1960541 1.5460762
0000a0 e3 4b cb 3f c5 d7 c4 3f da ac 35 bf 25 30 2d bf
       1.5882534 1.5378348 -0.70966876 -0.6765159
0000b0 d3 eb c3 be e8 13 55 bf 44 3c 95 bf 03 7a 8d bf
       -0.38265857 -0.832335 -1.1659017 -1.105286
0000c0 c2 81 9f 3f ce a3 12 bf
       1.2461474 -0.57281196

weight f4 [100, 50]
000000 e8 ff 10 c0 45 6a 01 3f c3 a0 f7 3e 5c 2c c7 3e
       -2.2656193 0.5055278 0.4836484 0.3890103
000010 8b 2d 90 bf 2a 44 19 c0 52 23 a9 bf 76 ed 28 3f
       -1.1263899 -2.3947854 -1.3213904 0.65987337
000020 2a a7 99 bf 14 4e ae bf 3f e7 87 bf 92 fa 04 c0
       -1.200414 -1.3617578 -1.0617446 -2.0777936
000030 e7 aa e1 3e fc 28 ff 3e 6d f5 18 3f 31 54 06 3f
       0.440757 0.49835956 0.5974949 0.52472216
000040 a2 13 a5 bf 13 9b af bf 96 e1 b8 bf 75 c7 07 3f
       -1.2896616 -1.37192 -1.4443843 0.5303872
000050 01 59 bf 3e ec 05 c6 3e 8e 39 d3 3e a4 5a b8 bf
       0.37372592 0.38676393 0.41254848 -1.4402661
000060 ea 76 0f c0 41 f4 b9 bf 81 a6 f3 3e a6 ee fc bf
       -2.241633 -1.4527665 0.4758797 -1.976033
000070 6c c0 b6 bf 58 eb 8b bf 2c 3e c7 bf 1b 2f 93 bf
       -1.4277472 -1.0931196 -1.5565848 -1.149875
000080 a1 6d c7 bf e9 42 f0 3e d1 a6 ab bf b2 ae 02 3f
       -1.5580331 0.46926048 -1.3410283 0.51047814
000090 f8 f1 c1 bf 7a 80 02 3f 0b 59 d9 bf e3 44 fd 3e
       -1.5151968 0.5097729 -1.6980299 0.4946662
0000a0 2a 45 11 3f c8 67 de 3e d9 58 09 c0 61 6e 09 c0
       0.5674616 0.43438554 -2.1460478 -2.147362
0000b0 19 45 e2 bf 1f d9 a6 bf 63 fd ad bf c1 6d b8 bf
       -1.7677337 -1.303501 -1.3592952 -1.4408494
0000c0 d5 59 db 3e 0a c2 f7 bf 32 b8 1c c0 b1 ce 1c 3f
       0.42841974 -1.9356091 -2.4487424 0.61252886
0000d0 19 7d d9 3e af 60 16 3f 83 a3 5a bf b2 63 0a c0
       0.42478254 0.5874128 -0.8540575 -2.162335
0000e0 78 13 a6 bf e9 9d ec 3e ef 37 b1 bf 20 d9 cb bf
       -1.2974691 0.46214226 -1.3845195 -1.5925636
0000f0 a7 a3 84 bf 93 be 03 c0 24 b0 c4 3e ce 6d 9c 3e
       -1.0362443 -2.0585067 0.38415635 0.30552524
000100 f8 db e6 3e 47 bd b2 3e 6c f8 97 bf c0 01 a0 bf
       0.45089698 0.34910032 -1.1872687 -1.2500534
000110 5a d7 b3 bf 89 62 e0 3e 23 4f f8 3e f3 32 cf 3e
       -1.4050095 0.43825176 0.48497877 0.4046856
000120 72 42 e5 3e b7 7d c7 bf 7c 11 11 c0 39 34 d7 bf
       0.44777256 -1.558524 -2.2666922 -1.6812812
000130 62 1b f7 3e 1c b3 fe bf 5c 6b 99 bf 96 b0 79 bf
       0.4826308 -1.989841 -1.1985888 -0.97535074
000140 72 e6 bf bf a1 fe 90 bf 3f ad be bf ec 1a 04 3f
       -1.4992201 -1.1327707 -1.489662 0.5160358
000150 4e 8d b1 bf b8 1b b3 3e 79 43 c1 bf 81 32 09 3f
       -1.3871248 0.34982085 -1.5098716 0.5359269
000160 d4 39 d7 bf 7d 5d fb 3e 72 fa 16 3f f4 ea fd 3e
       -1.6814523 0.49094763 0.589759 0.49593318
000170 dd f7 03 c0 1c dc 05 c0 14 36 e2 bf 47 1a b6 bf
       -2.0620034 -2.0915594 -1.7672753 -1.4226769
000180 15 c0 cd bf e1 3e b1 bf 2d 6b 1a 3f 72 e6 ff bf
       -1.6074244 -1.3847314 0.6031979 -1.9992201
000190 ab 4c 29 40 e0 bc 01 3e 3f f6 69 3e 0f 5e 23 3e
       2.6453044 0.12669706 0.22847842 0.1595385
0001a0 05 57 c0 3f 0c 42 20 40 03 e9 cd 3f c9 52 85 3d
       1.5026556 2.5040312 1.6086735 0.06509931
0001b0 46 5d d0 3f f5 31 d5 3f 76 65 a0 3f 72 37 1c 40
       1.6278465 1.6655871 1.2530963 2.440884
0001c0 fe 39 24 3e 0f ae a1 3e ce 47 40 3e bd a5 1c 3e
       0.16037747 0.3157811 0.18777391 0.15297599
0001d0 94 4f b1 3f 0c c4 ed 3f 2a e6 d0 3f 09 c3 35 3e
       1.385241 1.8575454 1.632024 0.17750181
0001e0 fa 33 83 3e d0 38 11 3e 26 92 b5 bd 2f 6a 01 40
       0.25625592 0.14181828 -0.08865766 2.022106
0001f0 8e 94 11 40 7b 98 06 40 08 84 1b 3e f6 99 1c 40
       2.274692 2.1030567 0.15187085 2.446897
000200 ee 11 d1 3f 56 70 a0 3f ed 51 f1 3f af ee a1 3f
       1.6333597 1.2534282 1.8853127 1.2650965
000210 32 00 e0 3f 5c 75 b1 3e f6 22 e0 3f b4 f8 e0 3d
       1.750006 0.3465985 1.7510669 0.10984936
000220 32 f0 ee 3f ff ca 4e 3e 6a 31 01 40 08 c0 0e 3e
       1.8667052 0.20194624 2.018641 0.13940442
000230 d6 b1 2f 3e 3d a1 ea 3e 47 60 20 40 a5 23 1a 40
       0.17157683 0.4582614 2.5058763 2.4084256
000240 c2 4c f5 3f f0 71 ca 3f 6b 29 da 3f 12 ea dc 3f
       1.916405 1.5816021 1.704389 1.7258933
000250 e1 f3 09 3e cf 60 0d 40 55 eb c6 bc 52 49 53 bc
       0.13471939 2.2090337 -0.024282137 -0.012895899
000260 54 ce c1 bd 1b 2c 2c 3e 6b 87 af 3d 1a cb 02 be
       -0.09463182 0.168137 0.08570751 -0.1277279
000270 77 40 c8 bd 82 46 a3 3d 7d 6b fc 3c 12 53 60 bd
       -0.09777921 0.07972433 0.030812973 -0.054766722
000280 44 a5 ae 3c 07 4f 02 3d 6e cb 84 bd db 48 01 3e
       0.02131904 0.031813648 -0.06484114 0.12625448
000290 03 66 18 be a2 5b 52 3e 3f 0b c0 bd 0f 1b 0b bd
       -0.14882664 0.20542768 -0.09377145 -0.033961352
0002a0 f3 58 85 3d 3d 63 36 3c 31 8a 17 bd 1a 2a 5c be
       0.06511106 0.011132059 -0.036997024 -0.21500435
0002b0 35 f3 7a bb 32 7c 67 3e 8b 1d 36 3d 7a 82 64 be
       -0.0038291935 0.2260597 0.044461768 -0.22315398
0002c0 13 d1 1e 3d 29 cb 86 bc 9b 9c 5b 3d 2e 32 23 be
       0.038773607 -0.016454296 0.053616147 -0.15937111
0002d0 3f 84 00 be 72 1d 8c bd 24 3a c0 bd 29 96 8c bd
       -0.12550448 -0.06841554 -0.093860894 -0.06864578
0002e0 7b 8d 00 be 55 14 fa 3d f4 f8 15 3d 34 d4 a0 bc
       -0.1255397 0.12210909 0.036614373 -0.019632436
0002f0 e6 74 47 bc 68 9b 2b be ef ec b4 3d 19 0e 04 bd
       -0.012173867 -0.16758502 0.08834254 -0.032240007
000300 fd 3d 2e bc c5 ae 5a 3e 5e 1e 9c 3d 44 29 05 3e
       -0.010634896 0.21355732 0.076229796 0.13004023
000310 1e 77 81 3b f3 4b fc 3b a2 e3 53 be c2 5d 04 bc
       0.0039509675 0.0076994835 -0.20692304 -0.008078994
000320 34 c9 16 c0 91 72 ef 3e 33 e5 17 3f 8f 83 2b 3f
       -2.3560305 0.46767095 0.59334105 0.6699762
000330 6a d5 73 bf b4 2e 0e c0 59 de 8f bf ee 55 f9 3e
       -0.9524752 -2.2216005 -1.123973 0.48698372
000340 9c 71 9d bf 09 a3 a4 bf 07 07 92 bf 1a d9 02 c0
       -1.2300296 -1.2862254 -1.1408395 -2.0445008
000350 eb ba 28 3f e4 97 de 3e f5 69 df 3e cc 33 02 3f
       0.65910214 0.43475258 0.43635526 0.50860286
000360 93 72 b0 bf a0 d5 b0 bf f6 f8 b7 bf ba 11 cc 3e
       -1.3784965 -1.3815193 -1.4372852 0.39857274
000370 23 d5 d4 3e 5b a5 fd 3e bb 0f e9 3e c3 89 b6 bf
       0.4156886 0.4954022 0.45519814 -1.4260792
000380 57 5d 03 c0 0f 98 d1 bf cd f9 f7 3e 7b 67 ee bf
       -2.052572 -1.637453 0.4843277 -1.862533
000390 8b 05 b3 bf 39 b0 73 bf c4 28 ce bf 34 27 7d bf
       -1.3986067 -0.9519077 -1.6106191 -0.98887944
0003a0 f1 88 d1 bf bb c7 0d 3f 8d b4 c1 bf 62 90 96 3e
       -1.6369916 0.5538289 -1.5133225 0.2940703
0003b0 06 96 c6 bf dc 14 07 3f bb 41 cc bf 59 11 06 3f
       -1.5514534 0.52766204 -1.5957559 0.5237022
0003c0 4f cf fd 3e a0 72 1b 3f e3 95 09 c0 40 c1 05 c0
       0.49572226 0.6072178 -2.1497734 -2.08992
0003d0 b1 d6 e9 bf 40 69 c1 bf 99 8e b9 bf c9 a8 a9 bf
       -1.8268644 -1.5110245 -1.4496642 -1.3254634
0003e0 e9 23 ff 3e 7d f6 fd bf c4 33 0f c0 82 9a 15 3f
       0.49832085 -1.9840847 -2.2375345 0.58438885
0003f0 d4 bc cc 3e ce 03 29 3f 51 eb 79 bf 41 47 03 c0
       0.39987814 0.6602143 -0.9762469 -2.051224

bias f4 [100]
000000 c9 71 be 3f 22 c0 b3 3f 96 de 30 bf 10 d0 58 bc
       1.4878474 1.4043009 -0.6908964 -0.0132332
000010 fd 7d b3 3f 9f 67 b5 3f 1f e2 a6 3f 9b 37 8d 3d
       1.4022824 1.4172248 1.3037757 0.068953715
000020 c8 86 da bd 02 29 fb 3d 54 b8 02 3d 5a 71 73 bd
       -0.10670239 0.12263681 0.03191407 -0.059434272
000030 27 0f 91 bd 7f 00 1f bc e1 b7 a1 3f ff 77 a8 3f
       -0.07082968 -0.009704708 1.263424 1.316162
000040 e9 b0 a8 3f 1f 17 a9 3f 80 d0 fd 3c 78 85 9f bd
       1.3178989 1.3210181 0.03098321 -0.07789129
000050 57 9b bc 3f a0 a2 d8 bd 8b a9 0b be 38 24 93 3d
       1.4734906 -0.10577893 -0.13638894 0.071846426
000060 78 46 1b be 6b 3e e6 bd 15 d5 bb 3f 88 fb 71 3d
       -0.151636 -0.11242374 1.4674402 0.05907777
000070 66 d6 ad 3d 9e db 8e bd 76 89 87 3d 1d 4a b5 3f
       0.08488159 -0.069754824 0.066180155 1.4163243
000080 f5 11 9b 3f 90 74 1c bd 7f 9d f4 3d 02 64 b6 3f
       1.2114855 -0.0381971 0.119441025 1.424927
000090 ff 24 bd 3f d1 f2 b4 3f 7b 65 bd 3f 97 14 b3 3c
       1.4776915 1.4136602 1.4796594 0.021860404
0000a0 73 f7 8e bd 86 aa 9a 3f 0a f9 a1 3f d6 b1 61 bd
       -0.06980791 1.208329 1.2654126 -0.05510124
0000b0 bd 2a df bd 89 e6 af 3f e0 65 b3 3f 18 47 03 be
       -0.108968236 1.3742229 1.4015465 -0.12820089
0000c0 70 69 e2 bc 03 25 a8 3f ac 44 c8 bc ba 15 8d bf
       -0.027638167 1.3136295 -0.024446808 -1.1022255
0000d0 14 1b 80 3d e9 27 a1 3f bc e6 9c 3f c8 a9 06 be
       0.06255165 1.2590305 1.2257915 -0.13150704
0000e0 1a fc df 3d 26 77 c5 3d 7f 8b 88 3d 60 91 ad 3f
       0.109367564 0.096418664 0.06667232 1.355999
0000f0 d3 6d a5 3f 40 99 7c 3d d9 d3 b6 3f e2 7f b7 3f
       1.2924141 0.061669588 1.4283401 1.4335902
000100 d2 f0 f2 3d 4c 42 95 3d 96 40 f5 bd 65 11 bb 3f
       0.11862339 0.07288036 -0.119752094 1.4614683
000110 88 dc 3c bb 50 11 00 3e 8b 9e 6e bd 50 2d ae 3f
       -0.002881797 0.12506604 -0.058256667 1.3607578
000120 29 bf bb 3f 98 ad 93 bf 2c ec 27 bd d5 00 b2 3f
       1.4667712 -1.1537352 -0.040996715 1.3906504
000130 e3 fd a3 3f 9d cf a5 3f e0 6f c9 3b 5d 91 ab 3f
       1.2811855 1.2953984 0.0061473697 1.3403736
000140 6d a8 b4 3f 39 8e a6 3f 7c f4 f7 bc a1 40 be 3f
       1.41139 1.3012153 -0.030267946 1.4863473
000150 8c b8 b4 bd 12 15 fc bd cd 12 a7 3f f6 da e9 bd
       -0.08824262 -0.12308706 1.3052613 -0.114187166
000160 2c 0c b9 3c 91 1d b7 3f 4d 28 9d 3f d8 c6 ba 3f
       0.022588812 1.4305898 1.2277924 1.4591932
000170 da 0c a9 3f c4 ad b6 3f b3 64 da 3b 4b 05 fd bd
       1.3207047 1.4271779 0.0066648363 -0.12354525
000180 ca 1f e2 3d 5d 8d 09 be 37 2e c7 bd 3f 0b 9f 3f
       0.110412195 -0.13432832 -0.09725612 1.2425307

weight f4 [200, 100]
000000 48 c2 48 be 73 bd a9 be f4 f7 82 3d 27 62 03 be
       -0.19605362 -0.3315235 0.063949496 -0.12830411
000010 ff 59 8d bd 27 dc 29 be e7 d6 c9 3d 13 ee d1 bd
       -0.06901931 -0.16587888 0.098554425 -0.10250487
000020 b5 8a dc bc cf f0 43 be 97 89 09 3e ee d3 07 3d
       -0.02692161 -0.1913483 0.13431393 0.033161096
000030 1b 31 4b 3d 2f 44 18 bd 4b 26 0d 3e 3a 1d 3c ba
       0.049607377 -0.0371744 0.13784139 -0.0007175986
000040 07 56 1d be 9b 9b 1d bb 8c a8 10 bd d9 91 8f bc
       -0.15364848 -0.0024049047 -0.03531699 -0.0175256
000050 63 72 0e 3d 2f 2c 3c 3d 80 4b d9 3c 03 cf 29 be
       0.034777056 0.045940574 0.026525259 -0.16582875
000060 8b d9 17 3e e7 a6 52 be de 30 3d be b5 a2 74 3e
       0.1482908 -0.2057148 -0.18475673 0.23890193
000070 10 4c d7 bd e0 be 4a bd 28 a9 14 be 22 77 68 bd
       -0.10512555 -0.04949844 -0.14517653 -0.05675424
000080 b7 9f 87 3d 7a e3 f6 3d 42 26 19 3e 94 e2 5d bd
       0.0662226 0.120551065 0.14956 -0.05417116
000090 a5 11 21 3d cc 6e 9e bd 0c c2 bd bd ea f4 59 3b
       0.039323468 -0.077359766 -0.09265527 0.0033257552
0000a0 3a e8 c8 3d 13 b8 ba bd 10 f5 25 bd 87 a7 98 bd
       0.09809919 -0.091171406 -0.040516913 -0.07453828
0000b0 3d 86 4e 3e 1a bd d6 bc a0 9a 7d 3d 77 0b fa 3d
       0.20168395 -0.026213218 0.06191504 0.12209218
0000c0 fc 5d ba 3d 71 64 d0 3d 47 d7 34 3e 24 dd 9d bd
       0.09099957 0.10175408 0.17660247 -0.07708195
0000d0 f2 8c 1e be 5d 0c 08 be 40 80 86 bd af e1 0e be
       -0.15483454 -0.13285966 -0.065674305 -0.13953279
0000e0 cb 63 62 bd 97 92 41 bc e2 03 d1 3d b2 74 35 3d
       -0.05527095 -0.011814735 0.10205819 0.044300742
0000f0 3a e0 e7 bd ff e5 1a be 4d de 21 be b9 0e 1c be
       -0.11322065 -0.15126799 -0.15807457 -0.15239991
000100 ba 73 64 3d 4f f4 25 3a fd 06 1b be 3d 45 26 3d
       0.055774428 0.00063306553 -0.15139385 0.040593375
000110 9c 10 ba bd 7f e8 c8 3d 13 64 29 bd 1e 8a 04 bc
       -0.09085199 0.0980997 -0.041355204 -0.00808957
000120 69 71 41 be fa 5d 86 3c 58 8a 48 bd dd bb 4b be
       -0.18890919 0.016402233 -0.04896006 -0.19895883
000130 7c d9 1e bc b4 86 d7 bd fb 3f 3c bd 2d 66 76 3c
       -0.009695407 -0.105237395 -0.045959454 0.015039009
000140 f5 09 37 be 15 ca b7 bb 1b b1 14 be 1a 40 e7 bd
       -0.17874892 -0.005608807 -0.14520685 -0.11291523
000150 51 02 bb ba 50 5f 3e 3d 9f f0 09 bd cf 72 c3 3d
       -0.0014267658 0.046477616 -0.03367674 0.095433824
000160 da ee e2 3d 86 30 36 bc e7 8d 4a 3d 3a 75 11 3e
       0.110807136 -0.011119967 0.049451735 0.14204875
000170 3c 0f 99 bd 49 0b 20 be 1b a2 2a bc 01 23 18 3d
       -0.07473609 -0.15629305 -0.0104146255 0.037142757
000180 57 32 ca bd 5b 78 87 bc d5 82 5a be 4e 6a 08 3c
       -0.09872883 -0.016536882 -0.21338971 0.008326126
000190 bc 94 ad 3c 3a 64 a1 ba 80 3e 17 3d f4 f7 94 bd
       0.021189086 -0.0012313195 0.03692484 -0.07273856
0001a0 58 42 54 3d bd 0d 3c 3d 57 16 41 be 89 4f f5 bc
       0.051821083 0.04591154 -0.18856178 -0.029945152
0001b0 fb 24 a6 bd b7 dd 92 3e d0 b9 f5 3d 53 9d f6 3d
       -0.08112522 0.2868478 0.119983315 0.12041726
0001c0 25 1d d4 bd c2 79 53 3d d3 f2 6c be bc da 45 3e
       -0.103571214 0.05162979 -0.23139505 0.19321722
0001d0 db bd 27 3e 7e 05 5f bd 83 9c 8e bd 20 5c 04 3d
       0.16381018 -0.054448597 -0.06963446 0.03231442
0001e0 ed 2e e3 3d bf 20 81 be 0f 93 a2 3d 46 86 ae 3d
       0.11092935 -0.25220296 0.079382055 0.085217044
0001f0 6d a1 9f bd 18 5d 70 bc e1 29 b1 bc 2d b0 03 bd
       -0.077944614 -0.014670633 -0.021626415 -0.032150436
000200 43 69 e5 bd 47 0a 1f 3c 17 06 58 3e 5d 88 c8 bd
       -0.11201718 0.00970704 0.21096073 -0.09791634
000210 b2 99 d8 bc 36 fe 13 bd 33 63 85 3e 8c ea d7 bd
       -0.026440475 -0.036131106 0.26052245 -0.10542783
000220 89 71 b3 bd ec 49 80 bc db ce 75 3e 9d d7 0b bd
       -0.087618895 -0.015660249 0.2400469 -0.03414117
000230 42 69 0c bd cd 49 21 be c0 49 85 bc 5f fb bd bc
       -0.03428007 -0.15750809 -0.016270518 -0.023191152
000240 00 df ea bc 69 95 8c bd 76 27 df bc df 39 03 3e
       -0.028670788 -0.06864435 -0.027240496 0.12815045
000250 df 51 55 3d c5 8b 24 bd cf 68 5e bd 8f 8e 76 bd
       0.05208003 -0.040172357 -0.054299172 -0.06019455
000260 eb fe 30 be 11 c8 8e be f4 d9 69 bc 2d 85 82 3d
       -0.17284743 -0.27887014 -0.0142731555 0.063730575
000270 2b b1 a3 3d d0 6c 43 3d 3c e9 29 3c 1c 11 70 bd
       0.079927765 0.047711194 0.010370549 -0.058610067
000280 33 f7 ed bd 4b 3f db bd 70 57 04 3e f1 0f b6 bd
       -0.11619415 -0.107054316 0.1292398 -0.08889759
000290 a5 b0 92 bc 6c 9c 99 3e 9a 1b b9 bd bc ce d8 3d
       -0.017906496 0.30002153 -0.09038468 0.105863065
0002a0 2d 97 c3 3c 53 4d 1d 3e 7b c7 65 bd fe f6 8b bd
       0.023875797 0.15361528 -0.056098443 -0.068342194
0002b0 20 9d 4f 3d 67 48 f5 3d 15 49 86 3c 94 db db bc
       0.050686955 0.119767 0.01639227 -0.026838101
0002c0 36 a8 3d bd 41 88 2a 3d 50 c7 7a bd 74 33 ab 3d
       -0.046302997 0.041633848 -0.061225235 0.08359423
0002d0 df 8a ff bd b1 f5 33 3d d2 a2 90 3d 90 61 21 bd
       -0.124776594 0.04393548 0.070623055 -0.039399683
0002e0 10 a2 db 3d 93 03 b7 3d f5 da dc bd 7e f3 00 3e
       0.1072427 0.089362286 -0.1078395 0.12592885
0002f0 63 44 48 bd 4e 8b 28 bd c3 66 4e 3e fd 91 fd bc
       -0.048893344 -0.041148476 0.20156388 -0.030953402
000300 3c e9 8c bd 6b b3 fc 3c 4a 2e 3f 3e 04 0c 52 3e
       -0.068804234 0.030847272 0.18670002 0.20512396
000310 e5 08 f3 3c 2b e4 34 bd 6b 84 1b be ee 14 c7 bd
       0.029667327 -0.04416291 -0.15187232 -0.09720789
000320 76 d6 78 3d fc d6 0b be bf 6a 16 3d 17 50 3f be
       0.0607514 -0.13656229 0.036722895 -0.18682896
000330 e6 e7 e3 3b c5 1c a9 3c 86 8e 28 be 3c 7e 08 bd
       0.0069551347 0.020643601 -0.16460618 -0.03332351
000340 d9 80 1e 3e 4a 12 d7 3c 8f ba e2 bd ab f2 4a 3d
       0.15478839 0.026253838 -0.110707395 0.049547832
000350 39 b6 99 3d 0d 95 0f 3d 2c cc a6 bd 1a 8a 2d bd
       0.07505459 0.035054255 -0.081444114 -0.042368032
000360 58 ee 10 be 0c e2 e0 3d 42 b7 ef bc 1c 65 97 bd
       -0.14153421 0.10980615 -0.029262189 -0.07392332
000370 a7 95 d2 3d c6 92 30 3b 59 bf 20 3c c3 ac 56 be
       0.1028245 0.0026942953 0.009811246 -0.20964341
000380 c1 15 18 3d 40 03 9f bd d6 1c fb 3b 30 1e e0 bd
       0.03713012 -0.07764292 0.0076633496 -0.10943258
000390 b7 55 ad bd e9 06 97 bd 53 d3 8c bd 6a 84 f7 bc
       -0.084636144 -0.07374365 -0.068762444 -0.030214507
0003a0 fd 9a 02 bd 5b 76 87 bd c9 89 7e bd 01 6d 95 ba
       -0.03188609 -0.066143714 -0.06214312 -0.0011400284
0003b0 b5 8c 9f bd 55 29 0a 3e 03 db 40 be a6 30 38 3e
       -0.077905096 0.1349233 -0.18833546 0.17987308
0003c0 c8 d8 5e bd 75 e8 4e 3c f6 72 72 3d 39 2f c2 bc
       -0.054405957 0.012628664 0.059191667 -0.023704158
0003d0 d5 05 5b 3d d8 69 12 bc d2 3a c8 bd 50 5d 6c 3a
       0.05347236 -0.008936368 -0.09776844 0.000901659
0003e0 7f 5b 92 3d 57 72 8d 3e 50 3f df 3c ca 0b f1 bc
       0.07146358 0.27626297 0.02725187 -0.029424567
0003f0 ac 24 8a 3d 61 fb e1 bc 7a a1 12 bd 58 a2 af 3d
       0.06745276 -0.027585687 -0.035798527 0.085758865

bias f4 [200]
000000 31 94 84 3d 19 f6 3c bd d0 7f c4 b9 7b 64 4a 3f
       0.06473578 -0.046133135 -0.0003747926 0.7905957
000010 2f b8 00 3c 24 cc e8 3c 19 80 86 3f 7c 95 86 bd
       0.007856413 0.028417654 1.0507842 -0.06571481
000020 18 21 24 bc 62 3f 16 3d be 34 a8 3f d7 bd 90 ba
       -0.010017656 0.03668154 1.3141096 -0.0011042905
000030 44 39 98 3f b2 91 82 3d 07 f0 ac 3f 8a a4 81 3f
       1.1892476 0.063754454 1.351075 1.0128338
000040 6d ca 99 3f 56 61 4b bd a7 6c 8a 3f 09 5d 92 3c
       1.20149 -0.049653374 1.0814408 0.017866628
000050 0d 5c f0 3c 92 12 a5 3b 78 b3 e9 bd 34 8e a9 bd
       0.029340768 0.005037614 -0.11411184 -0.08279076
000060 0f 9a 84 3d 6d 2c 83 bd 1d 76 05 bd bc 6c 85 3f
       0.06474697 -0.06404958 -0.032583345 1.0423808
000070 f0 c6 5d 3f dc 81 79 3c 2c 3b 8a 3f 67 09 51 3f
       0.8663168 0.015228715 1.0799308 0.8165497
000080 f7 16 84 3d 0c 18 d3 bd a6 7a 97 3f ef 32 b2 3f
       0.06449693 -0.10307321 1.1834304 1.3921794
000090 0d 09 5c 3f 6d f2 7d 3f 3e 9c 9e 3f 8b 9c 31 bd
       0.8595131 0.9919804 1.2391431 -0.04336218
0000a0 3f 46 9e 3f 3f 69 66 3f a9 f1 53 3d 18 7d 95 3b
       1.2365187 0.9000434 0.051744137 0.0045620315
0000b0 eb 95 1b 3c b0 d2 63 3f 2b 44 8f 3f 6d 4a f7 bc
       0.009496192 0.8899336 1.1192678 -0.030186856
0000c0 d2 76 73 3f f0 ef 99 3c e5 9c 83 3f e1 f4 a8 bd
       0.9510318 0.018791169 1.0282255 -0.08249832
0000d0 59 39 c4 3b 2d 96 99 3f 02 36 96 3f fd 86 28 bd
       0.0059882817 1.1998955 1.1735232 -0.04114436
0000e0 97 62 a3 3f a4 88 64 bd 9f 59 5c 3f d1 72 97 3f
       1.2764462 -0.055794373 0.8607425 1.1831914
0000f0 29 b6 8a 3f b9 e3 c6 bc fa af 11 bd ca 57 8a 3f
       1.0836841 -0.024278508 -0.035568215 1.0808041
000100 99 84 37 3d c1 f9 9b 3f 14 4f ae bd 7c d2 af 3f
       0.04480419 1.2185594 -0.08511177 1.373611
000110 18 f2 8d 3f a2 4b 63 3f db 45 a8 bd 61 40 69 3d
       1.1089506 0.8878728 -0.08216449 0.056946162
000120 47 5a 61 3f 0d 93 0d bd 34 e4 a3 3f 1f c6 8e 3f
       0.8802838 -0.034564067 1.2804017 1.1154212
000130 d6 10 12 3d 03 62 70 3c c7 88 6b 3d c1 95 9a 3f
       0.035660587 0.014671805 0.057503488 1.2076951
000140 68 19 a0 bb ba a7 ab 3f 79 2f 8f 3f e2 56 67 bd
       -0.004885841 1.3410561 1.1186363 -0.056479342
000150 38 0f 66 3f 4c 7a 90 3f b1 55 87 3f 1a 1a f6 bb
       0.8986697 1.1287322 1.0573026 -0.007510436
000160 dc f6 12 bc 20 8f e1 3c 0e 0a 6c 3f 54 8b 90 bc
       -0.008969989 0.027534068 0.9220284 -0.017644562
000170 d7 a0 95 3f bf 22 55 3d bf d8 5e 3d 7f 6b 7d bd
       1.168971 0.05203509 0.054405924 -0.061870094
000180 28 60 83 3f 31 0a a0 bd 92 ab a4 bd df cb 75 bd
       1.026372 -0.07814444 -0.08040537 -0.06000888
000190 ef 85 a0 3f 98 8f 9e 3f 61 0c 94 3c 52 62 b0 bc
       1.2540873 1.2387571 0.018072309 -0.021531258
0001a0 f9 fe 20 bc b2 b1 8a 3f 01 4e ff bc 84 25 a5 3f
       -0.009826415 1.0835478 -0.031165125 1.2902074
0001b0 de a4 5f 3f 47 35 83 bd 15 dd ab bd d2 6a 9a 3f
       0.8736094 -0.06406646 -0.083917774 1.2063849
0001c0 5e a2 bc bd 8c 75 e7 3c 47 78 a9 3f 27 7c e4 bc
       -0.092106566 0.028254293 1.3239831 -0.027891232
0001d0 73 7d 14 bd 6e 96 bd bd 13 11 7b 3f cf e2 a8 bd
       -0.03625245 -0.09257208 0.9807293 -0.08246385
0001e0 ef a9 8e 3f c8 cb 20 3f e9 e9 92 bd 1e 99 dd bd
       1.114561 0.62810946 -0.07173521 -0.108202204
0001f0 be 2c 44 3d 2c 4a 6e 3f 2e 32 30 bd dd 6b 77 3f
       0.047894232 0.9308193 -0.043016605 0.9664896
000200 32 9b 86 3d 59 7e 45 bd 5f 3b 9a 3d ea da b1 3f
       0.0657257 -0.048216198 0.075308554 1.3894932
000210 24 6f ce bd 05 3c ab bd 1b 29 4f bd 20 03 6b 3d
       -0.10079792 -0.08361057 -0.05057631 0.057376027
000220 15 90 63 3d 42 79 83 3d ed cf 05 3d 43 ba 91 3f
       0.05555733 0.064196125 0.032668997 1.1384968
000230 eb 00 81 3f c4 75 5d 3d 5e cd f0 3b 99 af a6 3f
       1.0078405 0.05406739 0.0073487004 1.3022338
000240 2e 05 9d 3f af 33 9f 3f 06 c3 81 bd 2f 82 7d bd
       1.2267206 1.2437648 -0.06336026 -0.06189173
000250 59 ad 1a bc 9a 56 e7 bd c1 6f b9 3f 0f 09 a5 3f
       -0.009440743 -0.11295815 1.448723 1.289339
000260 7f 10 56 3f a9 94 ac 3f 2c e7 43 3d 7f ac 61 3f
       0.8361892 1.3482867 0.047827885 0.88153833
000270 1f 5e b9 bd 71 be 91 3f ab 53 0d bd 75 25 8f 3f
       -0.09051155 1.1386243 -0.03450362 1.1183306
000280 9d ba 57 3d c0 ca 34 bd 81 ef 2f bd ea 13 b4 bb
       0.052668203 -0.04413867 -0.042953018 -0.005495538
000290 ec 2a 32 3b f7 d3 aa 3f d6 96 8a 3f 5a 0a 05 3d
       0.0027186228 1.3345937 1.0827281 0.032480575
0002a0 ba 84 db bb 85 8c 6a 3d 1e d4 7a 3f 39 b6 b3 3f
       -0.006699172 0.057262916 0.97979915 1.4039985
0002b0 bd fd 17 3b 27 d0 b0 3f 8d 0d f8 3b 4c 1c 8b 3f
       0.0023192011 1.3813523 0.0075699748 1.086801
0002c0 54 02 8d 3d 12 7b a2 3f d5 ac 9d 3f 76 1e 86 bd
       0.0688521 1.2693808 1.2318369 -0.06548779
0002d0 76 97 85 3f 23 da 86 3d 34 57 64 bd 0a 69 95 3f
       1.0436847 0.06584575 -0.055747226 1.167268
0002e0 9e 6f 82 bd ee 63 81 bc a8 3c e5 bc 96 f0 72 3f
       -0.063689455 -0.01579472 -0.027983025 0.94898355
0002f0 f1 25 81 bd a6 b5 11 3d 47 ee 8a 3f 66 af e5 bb
       -0.06306065 0.035573624 1.0853966 -0.0070094345
000300 15 9a 36 3d 8b b9 84 3f 71 48 a8 3f 26 51 26 3d
       0.044580538 1.0369123 1.3147107 0.040604733
000310 01 dc 8a 3f e6 2a 83 3f 0e 3e 25 bd 48 97 71 bd
       1.084839 1.0247467 -0.040342383 -0.058982164

weight f4 [20, 200]
000000 b5 19 0b be 4f 16 86 be d6 81 fc be d8 9a 3f 3e
       -0.13584025 -0.26188895 -0.49317807 0.18711412
000010 cd a6 dc be fb cc 1d bf ef 98 92 3e d7 c2 93 be
       -0.4309601 -0.616409 0.28632304 -0.28859589
000020 b8 66 8d be 22 78 65 be e8 d3 8c 3e 8d 61 7c be
       -0.2761743 -0.22409108 0.27505422 -0.24646588
000030 d3 65 9f 3e b5 a3 ae be 0c 10 c8 3e 2c 9f 78 3e
       0.31132373 -0.34109274 0.39074743 0.24279469
000040 ed 26 86 3e b7 e4 aa be 0c 45 b6 3e a4 50 dd be
       0.26201573 -0.3337762 0.35599554 -0.43225586
000050 27 6c f9 be cc 13 85 be 8b 6c 8c be 76 ec f8 bd
       -0.48715326 -0.25991666 -0.27426562 -0.12154476
000060 7c 86 66 be a8 5c e2 be b6 4e f4 be 2a 76 52 3e
       -0.22512239 -0.44211316 -0.47716302 0.20552889
000070 57 92 87 3e 1f c2 8f be 1f c0 d5 3d 1f 72 49 3e
       0.26478836 -0.2807779 0.10437035 0.1967244
000080 15 24 88 be 03 29 8e be f8 89 93 3e fa 2c c3 3e
       -0.26590028 -0.27765664 0.288162 0.38120252
000090 23 6f 7e 3e ed c5 55 3e 10 ef 81 3e 31 1b 92 be
       0.24847083 0.20876284 0.25377703 -0.2853637
0000a0 40 c8 f4 3d d6 63 d2 3e fb a6 a5 be 27 c6 99 be
       0.11952257 0.41091794 -0.32353958 -0.3003399
0000b0 cf 37 e1 be 18 5c b9 3e d9 7c 9d 3e 07 ae 9d be
       -0.4398789 0.36203074 0.30759314 -0.30796835
0000c0 61 39 9e 3e 77 69 89 be d1 12 84 3e 1f a5 af be
       0.30903152 -0.26838276 0.25795606 -0.34305665
0000d0 e2 3b d5 be 03 74 72 3e bc 12 c1 3e 8f 20 b5 be
       -0.4164725 0.23677067 0.37709606 -0.35376403
0000e0 c4 16 dc 3e f2 d7 55 be cc f5 bc 3e ae 71 c3 3e
       0.4298612 -0.20883158 0.36906278 0.38172668
0000f0 00 43 52 3e 88 9a 07 be 62 38 47 be 0a cc d1 3e
       0.20533371 -0.13242543 -0.19455102 0.40975982
000100 4f 26 b1 be 0c af 62 3e c3 ce 81 be 2d 17 8d 3e
       -0.3459954 0.22137088 -0.2535306 0.27556744
000110 cd ed 4b 3e b0 67 9a 3e 5d 4c 9a be 59 5b c7 be
       0.19914933 0.30157232 -0.30136386 -0.3893688
000120 52 ca 81 3e fd 3f a2 be 19 5d 51 3e 9a ff bc 3e
       0.2534967 -0.31689444 0.2044567 0.3691376
000130 df 69 22 be 90 ad 91 be 9c ad e2 be 41 96 1c 3e
       -0.15860699 -0.2845273 -0.44273078 0.15291692
000140 59 92 77 be d2 03 28 3e d6 d1 76 3d 82 77 2d be
       -0.24176921 0.16407707 0.06025871 -0.1694012
000150 11 08 9d 3e 9b 01 cc 3e 08 3f 37 3e 6b 97 97 be
       0.30670217 0.39844975 0.17895138 -0.2960771
000160 06 90 54 be ef be c5 be d6 83 b6 3e 50 c2 9e be
       -0.20758066 -0.38622233 0.35647458 -0.31007624
000170 38 8d d2 3e 02 90 c9 be df a9 c0 be ba 86 1b be
       0.41123366 -0.39367682 -0.376296 -0.15188113
000180 10 a6 a7 3e df c6 ab be 8b 7e b3 be 4d 0a c6 be
       0.32743883 -0.33550164 -0.35057482 -0.38679734
000190 9c a2 9c 3e ac a7 60 3e a6 1a 3b be ca 03 84 be
       0.3059281 0.21938962 -0.18271884 -0.2578414
0001a0 6a 96 25 be ac 06 fe 3d 8a 36 d8 be ab 0e a8 3e
       -0.1617066 0.12403616 -0.4222911 0.3282369
0001b0 8c db 79 3e ef 74 8c be fd 0e ef be 95 22 a4 3e
       0.24400157 -0.27432963 -0.46691123 0.32057634
0001c0 99 ca 8e be 7f b9 c6 be 67 88 59 3e 10 2a 83 be
       -0.27888945 -0.38813397 0.2124344 -0.2561803
0001d0 48 90 85 be 4b a4 b2 be 79 96 d1 3e a0 86 24 be
       -0.2608664 -0.3489097 0.40935114 -0.1606698
0001e0 31 ea 77 3e 1c bb d9 3e e0 77 7c be 64 3f b9 be
       0.2421043 0.42525566 -0.24655104 -0.36181176
0001f0 d0 04 9e be d6 25 44 3e 24 e6 5c be 14 e3 86 3e
       -0.30863047 0.19155058 -0.21572167 0.26345122
000200 a0 40 96 be a0 75 04 bf b4 8d 02 be 30 a9 aa 3e
       -0.2934618 -0.5174198 -0.12749368 0.33332205
000210 cc 3f bb bd e3 8e 86 be 34 27 66 be 3e 50 8b be
       -0.09143028 -0.2628089 -0.22475892 -0.27209657
000220 12 20 74 be 78 f8 db be b8 3a c8 be 80 97 c9 3e
       -0.23840359 -0.42963004 -0.391073 0.39373398
000230 70 94 20 3d e2 c8 66 be c3 88 78 be eb 50 4d 3e
       0.03920406 -0.22537568 -0.2427092 0.20050399
000240 5f 62 ce 3e a5 b8 ad 3e d9 c0 8e be 9b 28 97 be
       0.40309426 0.33929935 -0.27881506 -0.29523167
000250 fb 57 a2 be 74 43 ce be 3e 7c 98 3e 55 6d cd 3e
       -0.3170775 -0.40285838 0.2978229 0.40122476
000260 14 ea be 3e 78 7f 79 3e 44 26 5b be 4a fb 32 3e
       0.37287962 0.24365032 -0.21401316 0.17478672
000270 e0 cd d4 be af c2 cd 3e b5 8b b5 be fd f6 ea 3e
       -0.4156332 0.40187594 -0.3545815 0.45891562
000280 59 d1 ee be b1 6b 98 be c7 c5 9b be a3 02 de be
       -0.46644095 -0.29769662 -0.3042433 -0.43361387
000290 fb 8a c5 be e0 3b 8d 3d c6 33 99 3e c3 fd 77 be
       -0.38582596 0.06896186 0.29922312 -0.24217896
0002a0 00 9a a4 be 0d f8 7c be 01 e7 b1 3e e3 30 0b 3e
       -0.32148743 -0.24703999 0.34746554 0.13592868
0002b0 6d ae 99 be 36 8c 16 3e 38 6b 95 be 1f 72 4a 3e
       -0.3001589 0.14701924 -0.29183364 0.19770096
0002c0 27 13 8e be 5a f9 b1 3e 00 4e 9b 3e f9 1b db be
       -0.27748987 0.34760553 0.30332947 -0.4279478
0002d0 b9 bd a2 3e aa 69 67 be 52 5e 8c be cf 64 ad 3e
       0.31785372 -0.22598901 -0.2741571 0.33865973
0002e0 37 d3 82 be 0d 11 c8 be 53 45 b6 be 7e 26 a6 3e
       -0.2555177 -0.3907551 -0.35599765 0.32451242
0002f0 fc 15 07 bf 82 87 7a be 75 f4 bd 3e 96 43 b6 be
       -0.5276792 -0.24465755 0.37100568 -0.3559844
000300 57 46 83 be a9 90 b0 3e d7 f9 e3 3e 2f e9 d7 be
       -0.25639603 0.34485367 0.4452655 -0.42170092
000310 a1 a6 ab 3e 95 ea 34 3e 3f d8 a5 be 7b 9f a0 be
       0.33525565 0.17667611 -0.32391545 -0.31371674
000320 6e a2 ea be 7d d4 a9 be cb 69 fc be 3b 2b e8 3e
       -0.4582705 -0.33169928 -0.49299464 0.45345482
000330 71 e5 c1 be c8 e4 74 be 80 0b 7f 3e 7b 84 b7 be
       -0.37870362 -0.23915398 0.2490673 -0.35843262
000340 5e 5d f3 be 94 fc 40 be ea 24 2e 3e f8 03 bb be
       -0.4753217 -0.18846351 0.17006269 -0.36526465
000350 2f bc a8 3e 5f 07 db be 47 da 8e 3e 8b 0f 8b 3e
       0.32956073 -0.4277906 0.27900907 0.27160296
000360 19 a7 86 3e a0 fd 68 be 43 ad b5 3e d3 be db be
       0.2629936 -0.22753 0.3548375 -0.42919025
000370 06 12 00 bf d6 bc be be 5a 5c 95 be 5c cf 3d be
       -0.500275 -0.37253445 -0.2917202 -0.18536133
000380 73 fe 80 be 88 bb af be 0e 65 62 be 9d 56 b2 3e
       -0.2519413 -0.34322762 -0.22108862 0.34831706
000390 1f 03 b5 3e 7f 28 c7 be 6f a1 ae 3e b7 26 80 3e
       0.35353944 -0.38898084 0.3410754 0.25029537
0003a0 ad 42 8b be c1 c2 d4 be 4d 65 ce 3d 5a e6 92 3e
       -0.27199307 -0.41554835 0.10077915 0.2869137
0003b0 8f 7e 92 3e 01 95 a3 3e 1f 06 c3 3e 0a 12 65 be
       0.28612182 0.31949618 0.38090608 -0.22370163
0003c0 e4 51 02 3f d1 cb ac 3e da 04 7c be c1 4d 8d be
       0.50906205 0.3374925 -0.24611226 -0.27598384
0003d0 59 ed 8b be b0 7d d5 3e 1a 51 af 3e ae 75 b4 bc
       -0.2732952 0.41697454 0.34241563 -0.02202877
0003e0 66 3c c0 3e 54 2f c0 be 4f 67 81 3e 74 b7 d4 be
       0.3754608 -0.37536108 0.2527413 -0.41546214
0003f0 3d 13 e8 be 13 33 c1 3e f8 65 e9 3e 4e 08 d3 be
       -0.45327178 0.3773428 0.45585608 -0.41217273

bias f4 [20]
000000 c8 8e a4 3e 96 d9 a6 3e c9 a8 3b 3e 59 57 54 3e
       0.32140183 0.3258788 0.18326105 0.20736445
000010 52 8e 74 3e 3b 4c a4 3e d1 bb 6d 3e 55 3a 29 3e
       0.23882416 0.3208941 0.23216178 0.16526158
000020 3d b1 96 3d e4 a1 39 3e 10 dc 8c 3d 4e 34 ba 3e
       0.07358024 0.18128163 0.06877911 0.3636803
000030 88 50 5f 3e 5d 6b 88 3e 12 61 5c 3f 16 06 ce 3e
       0.21808064 0.26644412 0.8608562 0.40239018
000040 11 2a 76 3f a5 99 dc 3e 2f 47 22 3f ff e4 a6 3e
       0.9615794 0.4308597 0.6338987 0.32596585
