best/10576_7.model (torch_old, 125306 bytes, 8 tensors)

fc1.weight f4 [50, 33]
000000 fd f6 31 bd 2f e3 c5 3c aa 19 68 bd e7 27 f0 3f
       -0.043448437 0.024156181 -0.0566651 1.8762177
000010 57 a4 9f 3f 83 6f 85 bd b0 f9 8a 3d 0e 04 10 be
       1.2472028 -0.0651541 0.06785905 -0.14064047
000020 d6 e5 2e 3e 4a 4c 1f 3f 8f 3d 86 3f 03 f5 7e 3f
       0.17079863 0.6222578 1.0487536 0.9959261
000030 1d 59 a0 3f 1c 41 c6 3f 14 75 c9 3f 54 d4 c7 3f
       1.2527195 1.548862 1.5738854 1.5611672
000040 0c d2 ad 3f 0d f2 b3 3f c0 0c b4 3f 97 f9 85 3f
       1.3579726 1.4058243 1.4066391 1.0466794
000050 5d 3f 5f 3f 36 48 4e 3f 7f 06 40 3e 27 b1 91 bd
       0.8720606 0.80578935 0.18752478 -0.07113867
000060 ee c5 aa be 12 7e c8 be 89 a2 26 bf 2d 25 68 bf
       -0.33354133 -0.39158684 -0.6509176 -0.90681726
000070 89 d0 2a bf 12 af 2b bf a6 09 dd be f1 bc a9 bd
       -0.6672445 -0.6706401 -0.43171424 -0.08287991
000080 85 1a 65 3e ae e1 c2 bb 85 12 d8 3c 55 8b 11 3e
       0.22373398 -0.0059473133 0.026376018 0.14213307
000090 06 1c af bf 2b f4 95 bf 1f a1 cd 3d 6a d0 00 3d
       -1.3680427 -1.1715139 0.10040497 0.03144876
0000a0 81 43 ff 3e dd 8b f8 3e 00 c2 9c 3e ea 0b b4 be
       0.4985619 0.48544207 0.3061676 -0.3516534
0000b0 e3 7d 10 bf bf 65 7c bf bc 3b bb bf e9 d8 b3 bf
       -0.5644209 -0.9859275 -1.4627604 -1.4050571
0000c0 61 90 d8 bf 53 a4 b6 bf e1 ad bc bf 0e a6 a8 bf
       -1.6919061 -1.4268898 -1.4740564 -1.3175676
0000d0 06 81 c2 bf c6 c2 9d bf 02 72 4b bf 1b 19 45 be
       -1.5195625 -1.2325065 -0.7947084 -0.19247858
0000e0 93 0f 20 3e 55 62 4b 3e a1 42 1f 3f 77 26 40 3f
       0.15630941 0.1986173 0.6221104 0.7505869
0000f0 ad 48 7d 3f 19 8d a9 3f 5c 32 8d 3f 0b df 69 3f
       0.9893902 1.3246185 1.1030993 0.9135596
000100 cb d0 d1 3d 7b 3b 10 3e f3 16 ca bd f2 d2 bb bc
       0.10244902 0.1408519 -0.098676585 -0.022927735
000110 f2 95 6f bd 04 86 ef 3f c9 f6 b8 3f 33 38 95 3c
       -0.05849261 1.8712773 1.4450313 0.018215274
000120 b8 c7 16 3d 46 0a 81 3d 2d 9d a6 3e 0f 01 06 3f
       0.03681156 0.06300788 0.3254179 0.52345365
000130 52 88 8d 3f b5 fe 56 3f f4 bf 9a 3f 77 f5 9e 3f
       1.1057227 0.839824 1.208983 1.241866
000140 55 a2 c6 3f 0a a9 a3 3f 59 d9 c1 3f a1 cb a0 3f
       1.551829 1.2785962 1.5144454 1.2562143
000150 84 e1 9f 3f a7 d5 83 3f f9 3b 82 3f 00 34 1a 3f
       1.2490697 1.0299577 1.0174552 0.60235596
000160 2b 4a 81 3e af 75 0e 3d 30 34 d4 be b8 6c e8 be
       0.25251898 0.0347802 -0.41446066 -0.45395446
000170 fe 50 e0 be fd 11 65 bf f7 e2 21 bf 16 52 21 bf
       -0.43811792 -0.8948057 -0.63236946 -0.6301588
000180 7d 76 b0 be ea 4a 38 bd 86 da 72 3e 17 16 cd bd
       -0.344654 -0.04499332 0.23716173 -0.10013979
000190 c0 74 d5 bd f3 2c 70 3d 96 60 f4 3f c2 66 b0 3f
       -0.10422659 0.058636617 1.9091976 1.3781359
0001a0 fa f8 c9 3d e3 fb 68 3d 02 c9 7f bd ff 46 46 3e
       0.09861942 0.056880843 -0.062447555 0.1936302
0001b0 7e e2 de 3e 40 13 6b 3f 41 13 42 3f 86 9b 9d 3f
       0.43532175 0.9182625 0.7581063 1.2313087
0001c0 21 de c1 3f 3b 39 ba 3f 93 62 a8 3f 52 f2 c9 3f
       1.5145913 1.4548715 1.3155082 1.5777075
0001d0 fa fd 91 3f dc ce 9b 3f 3b 7e 5b 3f 21 cb 46 3f
       1.1405632 1.2172503 0.8573949 0.776537
0001e0 89 c3 07 3f a7 bc 89 3e 00 c6 17 3e b9 62 b4 be
       0.5303274 0.26901743 0.14821625 -0.3523157
0001f0 27 ae 80 be 38 e4 24 bf 57 93 54 bf d7 8a 55 bf
       -0.25132868 -0.64410734 -0.8303732 -0.8341498
000200 b6 a3 f1 be 1b 0e b8 be 1c 77 9e bd bd 1a c0 3e
       -0.47195214 -0.35948262 -0.07737562 0.375204
000210 af 66 85 3d 65 34 27 be 1b 05 cb bd 08 98 ed 3f
       0.06513726 -0.1632858 -0.09913083 1.8562021
000220 da d5 9c 3f fd 4e c1 3c 91 80 8f 3d 25 a4 73 bd
       1.2252762 0.023597235 0.07006944 -0.059482712
000230 f7 17 8c 3e 94 3c 01 3f e0 db 4b 3f 8a ed 7f 3f
       0.27362034 0.5048306 0.7963238 0.9997183
000240 b2 56 93 3f f4 06 a5 3f 0a f9 c5 3f 8f df c5 3f
       1.1510832 1.2892747 1.5466626 1.545885
000250 cc 24 ab 3f 47 66 a3 3f 20 ff a0 3f 6f a5 80 3f
       1.3370605 1.2765588 1.2577858 1.0050486
000260 35 68 7e 3f 26 da 1b 3f 84 1f db 3e ba 92 8d be
       0.9937776 0.60879743 0.42797482 -0.27651006
000270 d0 24 c9 be 61 60 d0 be d0 a3 12 bf 03 a0 59 bf
       -0.39285898 -0.4069853 -0.5728121 -0.85009784
000280 45 0d 59 bf a3 55 20 bf e9 ce e1 be 15 e5 5f 3c
       -0.8478587 -0.6263067 -0.44103172 0.013665457
000290 4e 5a 34 3e 83 23 30 be 9d bc 9e 3c b3 cc 45 3d
       0.17612574 -0.17201047 0.019377047 0.04829092
0002a0 2e 4a f2 be c9 b3 4d bf a5 42 11 be 82 ac fa bd
       -0.4732222 -0.80352455 -0.14185579 -0.122399345
0002b0 e5 32 96 3f df 54 84 3f 69 df e3 3e e9 2f f5 bd
       1.1734282 1.0338401 0.44506386 -0.11972029
0002c0 e6 ad 16 bf b9 c2 87 bf e0 47 b9 bf bd 16 d7 bf
       -0.588591 -1.06063 -1.447506 -1.6803814
0002d0 03 40 c6 bf 5b 52 fd bf d2 f0 01 c0 fe 45 d8 bf
       -1.5488285 -1.9790758 -2.0303235 -1.689636
0002e0 b8 46 ba bf ca 01 94 bf fd 61 71 bf 12 b1 0f be
       -1.4552832 -1.1563046 -0.94290143 -0.1403239
0002f0 ac 87 5f 3e f2 62 28 3f 35 b8 a1 3f b0 28 e1 3f
       0.21829098 0.6577598 1.263434 1.7590542
000300 e5 e2 c8 3f 2d 8d dc 3f 73 01 df 3f 57 5f b7 3f
       1.5694243 1.7230583 1.7422317 1.432597
000310 d5 65 55 bd f8 b2 43 be 0f 7b d5 3c 77 73 2a 3c
       -0.052099068 -0.1911124 0.026059655 0.0104035055
000320 c5 3d 72 3e 4f 1f f0 3f 74 4f b9 3f d7 2e 03 3d
       0.23656376 1.8759555 1.4477372 0.03202709
000330 7b 21 cc 3d 95 0c 94 3d 96 e1 a2 3e 0a e6 03 3f
       0.099673234 0.07228962 0.31812733 0.51522887
000340 46 0c 68 3f e8 e9 70 3f e9 e2 90 3f 1e c3 af 3f
       0.9064373 0.9410691 1.1319247 1.373142
000350 10 72 b9 3f f0 fd a5 3f 14 f0 ac 3f 3a cf 93 3f
       1.4487934 1.296812 1.3510766 1.1547616
000360 ac c5 a9 3f 04 93 67 3f 70 c2 56 3f 4b 4f f7 3e
       1.326345 0.90458703 0.8389044 0.48302683
000370 37 fd 89 3e 32 08 16 3d b7 1c da be 44 9b c1 be
       0.26951 0.03662891 -0.42600033 -0.3781377
000380 f5 ee 18 bf 87 54 45 bf 2e d6 3a bf 15 5a d8 be
       -0.5973962 -0.77082103 -0.7298306 -0.42256227
000390 04 30 16 bf 17 03 bb bd 56 da 8d 3e 42 53 9a 3e
       -0.58667016 -0.09131449 0.2770564 0.30141646
0003a0 9a 5e 0b 3e 68 9d 8b bc bc 2a 85 bf 69 95 aa bf
       0.13610306 -0.01704283 -1.0403666 -1.3326846
0003b0 57 35 3e be 9f 01 9c bd e3 28 3d 3f 6e e8 df 3e
       -0.18575035 -0.07617497 0.73890513 0.43732017
0003c0 ed 01 36 3e e9 9e d4 be de 1a 48 bf b6 4a 70 bf
       0.17774172 -0.4152749 -0.78165996 -0.93864
0003d0 a4 21 af bf b6 7e 9b bf f0 a6 e9 bf c8 f6 d7 bf
       -1.3682141 -1.2148044 -1.825407 -1.6872187
0003e0 0b 58 bc bf 66 d4 cf bf 81 d3 b8 bf c7 c6 90 bf
       -1.4714369 -1.6236694 -1.4439546 -1.1310662
0003f0 10 35 40 bf c7 e5 5c be 86 32 4f 3d 81 cf a7 3e
       -0.75080967 -0.21572028 0.050585292 0.327755

fc1.bias f4 [50]
000000 87 76 11 40 27 8c e6 bf c2 e5 17 40 56 5b 06 40
       2.2728593 -1.8011521 2.3733983 2.0993247
000010 7b 72 12 40 14 36 19 bf b1 b4 17 40 59 d2 cd bf
       2.2882373 -0.5984814 2.3704035 -1.6079818
000020 3a 28 b7 bf 85 8b 11 40 1c e0 0b 40 01 54 3e bf
       -1.4309151 2.2741406 2.1855536 -0.7434693
000030 85 31 16 40 d4 df 02 40 8b 83 13 40 c1 34 e7 bf
       2.3467724 2.0449114 2.3049037 -1.8062974
000040 a6 a6 bd bf 06 36 dd bf 3d d8 de bf b0 93 da bf
       -1.4816482 -1.7282112 -1.7409741 -1.7076321
000050 f6 26 0c 40 e4 db de bf bf d2 05 40 c9 a7 d1 bf
       2.189878 -1.7410855 2.090988 -1.6379329
000060 70 13 e8 bf 7e 24 e0 bf e6 fd c6 bf 4d c7 04 40
       -1.8130932 -1.7511137 -1.5546234 2.0746644
000070 2a b0 13 40 8b 97 0d 40 02 fd 15 40 79 47 0f 40
       2.3076272 2.2123744 2.3435674 2.2387373
000080 20 ad 0d 40 31 24 06 40 12 8e 13 40 fe 94 e9 bf
       2.2136917 2.095959 2.3055463 -1.8248594
000090 3b bc 2f bf de 34 d3 bf 18 37 0a 40 2c 9f df bf
       -0.6864659 -1.6500509 2.1596127 -1.747045
0000a0 76 ec 0f 40 91 01 15 40 6d ed 05 40 55 c3 ce bf
       2.2488074 2.3282206 2.0926163 -1.6153361
0000b0 d9 cd 0c 40 cb c1 0a 40 52 b5 45 bf a1 13 df bf
       2.200064 2.1680782 -0.772298 -1.7427865
0000c0 73 91 d5 bf b3 98 e4 bf
       -1.6685013 -1.78591

fc2.weight f4 [100, 50]
000000 64 63 09 3f ae 2d 63 bf d1 c3 14 3f f9 ba 0a 3f
       0.53667283 -0.88741577 0.5811129 0.5419155
000010 06 93 32 3f d7 3a 1e c0 71 1c eb 3e 0f 30 3a bf
       0.6975559 -2.4723413 0.45920137 -0.7272958
000020 4e ef 30 bf 9d fa 12 3f d5 25 ce 3e 4f f7 10 c0
       -0.6911515 0.57413656 0.4026324 -2.2650945
000030 e4 58 15 3f 79 e1 fd 3e 4c 12 0e 3f 0e 50 9a bf
       0.5833876 0.49586084 0.5549667 -1.2055681
000040 2d df 7a bf 4a 72 95 bf 52 4b a4 bf 0d 8f 86 bf
       -0.9799679 -1.1675503 -1.2835486 -1.0512406
000050 4c e1 2c 3f 7a b8 9c bf 14 bf ed 3e e7 52 95 bf
       0.67531276 -1.2243798 0.46434844 -1.1665925
000060 17 9d 8a bf 86 1d 83 bf d7 8a 91 bf 06 93 e9 3e
       -1.082919 -1.0243385 -1.1370496 0.45619982
000070 5c 0b ea 3e f5 cb fe 3e 00 4f cd 3e c8 cd 0a 3f
       0.45711792 0.49764982 0.40099335 0.5422025
000080 68 12 ab 3e 1b 5f 1c 3f 8f d3 0b 3f 42 f1 a1 bf
       0.3341248 0.6108262 0.5461969 -1.2651751
000090 da ed 1c c0 ab 47 57 bf 72 a3 e1 3e 24 a2 ae bf
       -2.4520173 -0.8409373 0.4407001 -1.3643231
0000a0 d1 79 00 3f 9a 87 9b 3e f3 b8 ea 3e 01 cc 9f bf
       0.5018588 0.30376893 0.4584423 -1.2484132
0000b0 1c 40 fe 3e df 35 c7 3e db 37 10 c0 67 8d 8b bf
       0.49658287 0.38908288 -2.2534091 -1.0902528
0000c0 0c a7 75 bf d0 33 88 bf 2f a6 cf bd 64 c2 ca bb
       -0.9595802 -1.0640812 -0.10139119 -0.006187724
0000d0 ed 1c 01 bc d1 f6 49 bd 7b 72 3e 3d af be d2 bc
       -0.007880432 -0.049307648 0.046495896 -0.02572569
0000e0 93 79 06 be 42 74 8d 3c 47 f7 99 bd 92 e0 80 3d
       -0.13132314 0.01726735 -0.075178675 0.062928334
0000f0 67 5b 40 3e 8d 6c 08 3e a2 7b 18 bd 95 73 90 3d
       0.18784867 0.13322659 -0.03722728 0.070532955
000100 0d 4b 72 3e f2 25 4c bc ae ea 05 be 97 f4 df bd
       0.23661442 -0.012460219 -0.13077804 -0.10935324
000110 cb cf 9e bd 80 c6 a2 bd 60 7b 87 bd 5b 5e 2e 3d
       -0.07754477 -0.07948017 -0.06615329 0.042570453
000120 25 23 63 3e 37 ac ea bd 12 a5 93 3d 96 5b 5a 3e
       0.22181375 -0.114586286 0.07209219 0.21324
000130 13 24 b2 bc 96 af af bb d1 bd c7 3c 85 aa 83 3d
       -0.021745717 -0.0053615076 0.024382504 0.064290084
000140 8c c5 13 be c4 21 bb 3d 5e ec 89 bd c1 19 e5 3d
       -0.14430827 0.091373 -0.067345366 0.11186553
000150 b5 cb 58 be 38 63 c5 bd 69 3a e2 bd 71 68 f0 3d
       -0.21171458 -0.09638065 -0.11046297 0.117386706
000160 e3 34 a8 bd b9 b7 92 3d dd 8e a1 bd f8 e1 08 bd
       -0.08213212 0.071639486 -0.07888577 -0.033418626
000170 94 53 09 bd d2 a7 ba bb d7 00 87 3c a9 ed b3 bd
       -0.033526972 -0.0056962753 0.016479893 -0.087855645
000180 dc ec d8 3c 60 b0 64 3e b9 28 25 3e b1 84 50 bd
       0.02648013 0.22332907 0.16128816 -0.050907794
000190 71 d9 0c 3f 5a 39 89 bf 04 4a 0a 3f 4f e4 79 3e
       0.5501929 -1.0720627 0.5401919 0.24403499
0001a0 c0 71 da 3e 2c eb 25 c0 08 89 11 3f c7 0b 60 bf
       0.4266491 -2.5924788 0.5684972 -0.8751797
0001b0 a8 b9 38 bf 2e 84 0e 3f 97 20 f1 3e 47 7c 0f c0
       -0.7215829 0.5567044 0.47095177 -2.2419603
0001c0 95 36 c8 3e 40 95 c5 3e 3e 0b f2 3e 4f a3 72 bf
       0.39104143 0.3859043 0.47274202 -0.9478044
0001d0 17 fd 6f bf 74 46 84 bf 8a 15 a3 bf 1a fe 67 bf
       -0.9374556 -1.0334 -1.2740948 -0.90622103
0001e0 5a a0 cf 3e 84 09 8f bf 3b 66 08 3f f7 be a4 bf
       0.40552026 -1.1174779 0.5328099 -1.2870778
0001f0 80 49 84 bf 26 aa 8f bf 59 d8 83 bf 2a 12 be 3e
       -1.033493 -1.12238 -1.0300399 0.37123233
000200 2a 7e e5 3e a6 f9 da 3e 17 dd 1b 3f 0c 7c 0f 3f
       0.44822818 0.42768592 0.6088423 0.56048656
000210 8c ed 84 3e f1 9a de 3e 27 d9 9e 3e c5 a3 a5 bf
       0.25962484 0.43477586 0.3102505 -1.2940603
000220 45 fa 13 c0 35 5b 56 bf dd 92 3f 3e f4 ea aa bf
       -2.3121502 -0.8373292 0.18708368 -1.3352952
000230 b6 83 d6 3e 9e 03 34 3f 63 4d 1b 3f 84 3c 9a bf
       0.41897362 0.7031802 0.6066496 -1.2049718
000240 e8 17 1f 3f f6 02 ed 3e fc 8d 11 c0 b5 6b 7a bf
       0.62145853 0.46291322 -2.274291 -0.978206
000250 41 fe 9c bf bc 32 87 bf 5c 7f c7 bd 58 68 df 3b
       -1.2265092 -1.0562358 -0.09741089 0.0068178587
000260 37 5e 27 3b 0b 68 af 3c 11 a9 a8 3c 5d 36 30 3e
       0.0025538334 0.021411916 0.02058843 0.17208238
000270 9b c2 1b bc 67 b4 3e bd 6f 78 1a bd 21 bd 9f bd
       -0.009506847 -0.046558764 -0.03771251 -0.07799745
000280 cd db 13 bd 07 63 d9 bc 1e db 06 be b6 32 8e bd
       -0.03609829 -0.026536478 -0.13169524 -0.06943266
000290 f9 c0 9e bd e3 03 df 3d 53 93 15 3d eb cb 41 3d
       -0.0775165 0.10889413 0.036517452 0.047313612
0002a0 27 13 84 3c 0c 35 8a bd 15 a8 a9 bd 27 e6 14 3e
       0.016122414 -0.06748399 -0.08284012 0.14540921
0002b0 82 f1 07 3d 0a 7e dd bd b9 4b a5 bc e8 cf f1 bd
       0.033189304 -0.10815056 -0.020177709 -0.11807233
0002c0 0b 16 e3 bd 36 8d 2c 3d 9f 91 3f 3a 95 00 dc bd
       -0.11088189 0.042126857 0.0007307771 -0.107422985
0002d0 38 45 2e 3d c3 b8 b6 bd 52 f2 0d 3e f0 d4 b5 bc
       0.04254648 -0.08921959 0.13861969 -0.022196263
0002e0 7f fd 09 3e 82 bc 13 be d9 17 2c be 76 2e b3 bd
       0.13475607 -0.14427379 -0.16805972 -0.08749096
0002f0 33 dc ff bd 9a 96 6d bc 58 46 68 3d 72 4a 8a 3b
       -0.124931715 -0.014501238 0.05670771 0.0042203004
000300 c3 77 f1 3b 48 4a 20 3d 05 b8 ae bd c8 c7 9c 3c
       0.007369013 0.03913334 -0.08531193 0.019138232
000310 38 92 3a be 71 5f 14 3c a0 3f 48 bc 6d fe 2a 3d
       -0.1821984 0.009055958 -0.012222201 0.041746546
000320 79 2c 22 bd 98 9d a6 3d 39 e8 1c be 45 08 59 bd
       -0.039593194 0.08135527 -0.15322961 -0.052986402
000330 c6 bd 3a 3e 0c 8f f9 3b 49 87 bd bd d8 fc 56 bc
       0.18236455 0.0076159295 -0.09254319 -0.013121806
000340 f1 95 24 be d4 65 81 3c 71 24 eb 3d b3 ed 85 3d
       -0.16072823 0.015795626 0.1148156 0.06539478
000350 18 e1 e4 bd 3a 2d f9 bb e8 05 82 bd 78 cb c6 bc
       -0.11175746 -0.0076042684 -0.06348783 -0.024266943
000360 ea cc 70 3d 9e c5 1d 3c d2 24 d7 3d e8 e4 6e bd
       0.05878917 0.009629635 0.1050507 -0.05832377
000370 3f 0b 9f 3c c4 dc ea bc e5 c1 59 bd 5a 34 13 3d
       0.019414542 -0.028669722 -0.053163428 0.0359386
000380 49 f9 b9 bd a7 d7 f6 3d af 3a 80 3d 57 c1 d1 bc
       -0.090807505 0.12052851 0.06261193 -0.025604887
000390 00 d6 0e be 2b d9 09 be fb c5 19 3d 1b 95 69 bd
       -0.13948822 -0.1346175 0.037542325 -0.057026964
0003a0 22 c6 7d bd 48 00 4e 3d 57 57 b4 3d ee 3a 0b bd
       -0.061956532 0.050293237 0.08805721 -0.033991747
0003b0 38 11 50 bd 18 5e 3a 3e de cb e6 3c e7 0b 9d 3d
       -0.05079767 0.18199956 0.028173383 0.07668286
0003c0 6e fc bb 3d bf 36 ee bd 3d 49 33 3e b7 cd 7c 3d
       0.091790065 -0.11631536 0.17508407 0.061719622
0003d0 e6 e3 1f 3c e5 57 3d 3d 3e 34 a7 bd 4f 1c f9 bd
       0.009758925 0.0462264 -0.08164261 -0.121636026
0003e0 fb 0d c0 3d a2 37 07 bd de 98 a9 3e 98 c8 a0 bf
       0.093776666 -0.03301204 0.3312444 -1.2561216
0003f0 57 eb 16 3f 44 f0 cb 3e 41 66 15 3f ef de 18 c0
       0.5895285 0.39831746 0.5835915 -2.3886068

fc2.bias f4 [100]
000000 71 eb 05 40 55 fe d4 bd fb 9f fa 3f 65 fe 8a bd
       2.0924952 -0.104000725 1.9580072 -0.06786803
000010 4b 0d f7 bd ed ed f9 3f 44 31 6d bd 80 8b 86 3d
       -0.12063082 1.9525734 -0.05790831 0.06569576
000020 62 9e 0a 40 95 d8 92 bd 30 fd fe 3f f4 e5 18 3d
       2.165917 -0.07170216 1.9921017 0.037328675
000030 69 5d 0a 40 77 ba b7 bd 61 9f 07 40 28 45 08 40
       2.1619513 -0.08971112 2.1191027 2.129221
000040 84 69 a5 3d b0 9b b3 bc 93 09 04 40 15 79 0c 3e
       0.08076766 -0.021924824 2.0630844 0.13718064
000050 8a 43 c7 3d ca ef 2d bd c0 ba 18 3c 7f 34 09 40
       0.09729679 -0.04246501 0.009321868 2.143829
000060 70 55 0a bc b0 89 c4 bd 3e 1e 06 40 57 8e 07 40
       -0.008443221 -0.09596574 2.0955958 2.1180627
000070 0d 6a b2 bf bb eb 08 40 68 4f b8 bc a0 86 26 3d
       -1.3938614 2.1393878 -0.022498801 0.040655732
000080 fc 14 4f bd 2d 65 03 40 b2 16 e4 bd f4 83 88 3d
       -0.05055712 2.0530503 -0.11137141 0.06665793
000090 cb 5e 04 40 b0 6b 55 3d d9 9c 0b 40 36 dc 09 40
       2.0682857 0.052104652 2.1814482 2.1540656
0000a0 0f 85 04 40 32 8e 82 3d 0c d4 07 40 1a de 07 40
       2.0706213 0.06374778 2.1223173 2.122931
0000b0 3c 8d 08 40 4a 46 03 3e 69 8b 01 3e 19 21 02 40
       2.1336203 0.12819782 0.12650837 2.0332701
0000c0 f1 20 0c 3e 1a 39 ee bf 39 2b 05 40 dd 74 fc 3f
       0.13684441 -1.8611176 2.080763 1.9723164
0000d0 d1 4d 05 40 83 3d 03 c0 6b f0 94 bd 58 fe 04 40
       2.0828745 -2.0506294 -0.072724186 2.078024
0000e0 a4 48 05 40 61 41 fd 3f 46 70 df bd 0a d5 05 40
       2.0825586 1.9785577 -0.10910086 2.0911279
0000f0 6f 05 0a 40 56 d8 0a 40 b0 63 0c 40 c6 62 0c 40
       2.1565816 2.169454 2.1935844 2.1935287
000100 6c 37 04 40 d2 14 03 3e c9 6f 90 3d fb d2 0b 3e
       2.0658827 0.12800911 0.07052571 0.13654701
000110 72 19 00 40 06 55 e5 3d e0 31 51 3c f5 47 08 40
       2.001553 0.111978576 0.012768239 2.129392
000120 08 5e 08 be fa ca 0d 40 ac 4c e1 3b 9a 5c 04 40
       -0.1331712 2.2155137 0.006875595 2.068152
000130 ec 46 c3 3c c4 6f ef bc 57 df 0b 40 22 63 1a bd
       0.02383753 -0.029228099 2.1855066 -0.037692197
000140 00 f4 d5 bc ba ae 83 3d 09 61 0e be e2 de e0 3d
       -0.026117325 0.06429811 -0.13904203 0.109800115
000150 5d a5 0a 40 22 12 eb 3d c6 f5 04 40 f9 26 e6 3d
       2.166343 0.11478068 2.0775008 0.11237902
000160 ba 78 a5 bd b3 87 f9 3f 13 c4 06 40 76 71 09 be
       -0.080796674 1.9494537 2.1057174 -0.13422188
000170 f7 e2 8d bc 82 b4 9f bd 60 4f 25 bc a9 7f e5 bd
       -0.01732014 -0.07798101 -0.010089725 -0.1120599
000180 30 88 f1 3c 72 5f 78 bd ef e2 0b 40 6d bf fc 3f
       0.029483885 -0.0606379 2.185726 1.9745919

fc3.weight f4 [200, 100]
000000 46 d4 d5 3e 19 9a ad 3d 14 44 f2 3e 96 84 24 3e
       0.41763514 0.084766574 0.47317564 0.16066203
000010 c4 13 1c be fb ef 08 3f 7b 8c 3d 3d 0d bd ee 3d
       -0.15241915 0.5349118 0.04627655 0.11657152
000020 7f e4 13 3f b7 58 ca bc 01 04 08 3f 7e 0a 89 3d
       0.5777053 -0.024700506 0.5313111 0.06691454
000030 ba f2 a0 3e 9a 54 1b 3e e2 46 e2 3e bf 0d e6 3e
       0.31435186 0.15168992 0.44194704 0.44932362
000040 6b a2 bb bd 3f b9 83 3c 5a dd 0f 3f c3 f2 df bd
       -0.09161838 0.016079543 0.5619713 -0.10934975
000050 2c 91 95 bd c7 b3 a1 3c 77 95 e4 3d f3 5c 04 3f
       -0.0730308 0.019739045 0.11161321 0.5170433
000060 4b 62 3c 3c 4a b1 c7 3d ec 44 b3 3e e6 a0 1d 3f
       0.011498044 0.09750612 0.3501352 0.61573637
000070 b8 ef ad bf 0b 4b 13 3f 97 b1 9a 3d f3 a8 ab 3d
       -1.3588781 0.5753638 0.07553404 0.08381834
000080 7b 64 a5 bd c3 58 08 3f 25 c3 ed 3c a3 a2 0e 3e
       -0.08075806 0.5326044 0.029023716 0.13929228
000090 fd 9b ea 3e e5 6f f0 bc ac 84 13 3f 3c 59 34 3f
       0.45822135 -0.02935023 0.57624316 0.7044866
0000a0 d6 02 34 3f 3f 6a 4e 3c 63 ac 06 3f f0 f0 c8 3e
       0.7031683 0.012598573 0.5260679 0.3924632
0000b0 96 00 b6 3e 85 ab 46 3e 88 5d 97 bd fb 2c 1b 3f
       0.35547322 0.19401367 -0.073908865 0.6061551
0000c0 df 9a fd 3c e2 0d 37 bf 3f 63 09 3e e0 9b ee 3e
       0.030957637 -0.7150556 0.13416766 0.46603298
0000d0 45 f8 15 3f 59 b2 48 bf c6 bc 2d 3c c3 a5 01 3f
       0.58581954 -0.78397137 0.010604089 0.5064356
0000e0 fc b7 2e 3f 39 cf 96 3d 41 18 6d 3d 41 f1 0d 3f
       0.6824949 0.07363743 0.05788446 0.5544625
0000f0 72 7b 17 3f a3 23 e7 3e 74 0c ed 3e 5f 54 ff 3e
       0.5917274 0.45144376 0.46298563 0.49869058
000100 57 d7 10 3f f9 b5 95 3d 47 b4 01 be 88 1d ac bc
       0.5657858 0.07310099 -0.12666427 -0.021010175
000110 b2 4a 1e 3f 9e b9 d9 3d e3 9a 39 be d1 9b f1 3e
       0.61832726 0.10631107 -0.18125491 0.4718919
000120 b8 1c 23 3d c1 8d c8 3e 24 ff 2d 3e ff 9d 24 3f
       0.03982231 0.3917065 0.1699186 0.6430358
000130 32 f8 e3 bd c5 22 92 bb 94 a1 0b 3f 52 5d d6 3d
       -0.11131324 -0.0044597113 0.54543424 0.10467018
000140 e8 ca ea bb 32 c4 03 3d 50 80 03 3e 4e c9 a0 39
       -0.0071653016 0.03216953 0.12841916 0.00030667562
000150 2a 34 18 3f fe d0 7f 3e 26 b7 0a 3f 90 73 bc bc
       0.59454596 0.24982068 0.5418571 -0.023004323
000160 87 15 eb 3d ac d6 eb 3e 0e 3e 14 3f b0 30 2e 3e
       0.114787154 0.4606222 0.5790719 0.1701076
000170 86 c6 c5 3d c9 a4 09 bd 5f 8c 1c be 09 57 cf 3d
       0.09657006 -0.033604417 -0.15287922 0.101240225
000180 27 b9 11 bd 5c 10 9a bd fc 20 d8 3e 8c 74 be 3e
       -0.035576966 -0.075226516 0.42212665 0.37198293
000190 fa 16 97 3d 0d 78 dd bd 96 d9 5e bb 0d 13 ec 3c
       0.07377429 -0.108139135 -0.0034004203 0.028817678
0001a0 5b b6 f8 3b e3 ab 25 3e 7a b7 99 3c 0b c1 d9 bc
       0.007590098 0.16178851 0.018764246 -0.026581308
0001b0 16 4d c2 bd ef 60 e4 3c 2c 5b 75 3c 13 06 fa bd
       -0.09487359 0.027878253 0.01497535 -0.1220819
0001c0 bf 12 ee bc 5d 1e f3 bd a0 15 48 be 6d 1c 42 3d
       -0.029061673 -0.11871026 -0.195395 0.04739039
0001d0 2a 1e 21 3d 16 96 c5 3d 96 10 87 bd 88 ea 56 3e
       0.039335407 0.09647767 -0.065949604 0.20987904
0001e0 d3 81 e7 bd bc d1 2a 3e e3 96 38 be 94 ca 54 be
       -0.11304059 0.1668157 -0.18026309 -0.20780402
0001f0 89 75 9f bb 97 f6 15 3d b3 2c f0 3d e6 a4 12 3c
       -0.004866306 0.03661212 0.11727276 0.008950448
000200 08 df 16 be c0 25 e9 3c 22 43 fb 3d 2b 26 ac bd
       -0.14733517 0.028460383 0.12268664 -0.084057175
000210 4a 78 2f b9 d8 da 10 be 5b 9c 38 3e 1b 80 ce bc
       -0.00016734112 -0.14145982 0.18028395 -0.02520757
000220 8b 5a c9 3c 27 37 e2 3b b9 c0 2e bd 9b 29 ff 3d
       0.024579307 0.0069035473 -0.042664263 0.124591075
000230 37 fb ab 3c 10 e1 cc bc b8 16 0c bd 91 2b 56 be
       0.020993812 -0.025009662 -0.034201354 -0.20915057
000240 82 ae 24 3e f8 e0 4a 3c b9 1e 9c bc d3 fd fa bd
       0.16082194 0.012382738 -0.019057618 -0.122554444
000250 cf 21 5e bd 27 0c 34 3e e3 bd 40 3d 47 96 fd bd
       -0.05423146 0.17582761 0.04705609 -0.12382179
000260 81 7c 93 3c 06 3e b8 bc 62 15 ae 3d 19 00 56 bd
       0.018003704 -0.022490513 0.08500172 -0.052246187
000270 bd 1c f9 3c 88 13 22 be 38 56 79 be 1a e4 57 bc
       0.030409211 -0.15827763 -0.24349296 -0.013176942
000280 ad 49 ac 3d dc 5f 98 bd 07 04 c0 bd e0 93 40 3c
       0.0841249 -0.07440159 -0.09375768 0.011754006
000290 e9 b3 9a bb f2 91 14 bd 40 07 da bc 50 a0 e9 bd
       -0.004721154 -0.036271997 -0.026614785 -0.1140753
0002a0 ef 11 90 bd 08 57 d5 3c 63 e9 24 3e 9c 1d c3 bb
       -0.070346706 0.026042476 0.16104655 -0.0059544574
0002b0 d9 cc a3 ba 9f b8 05 3d f8 63 35 3d 26 ab 3f bc
       -0.0012496962 0.03264677 0.04428479 -0.01169852
0002c0 e4 de 89 bd 04 06 a9 bc ae 93 e1 bc 68 9f 54 bd
       -0.06731966 -0.020632751 -0.02753624 -0.051909834
0002d0 fa 36 cc bd fa e3 60 3d 1a ec 74 3e 9b 33 dc bc
       -0.099714234 0.054904915 0.2391819 -0.026880076
0002e0 af 0c 33 be 31 c0 16 be 6c 9a c4 3d 57 60 d2 bc
       -0.17485307 -0.14721753 0.09599766 -0.025680704
0002f0 05 68 c1 bd 6c 1c 3b be 90 07 5b bd c8 e6 f1 3d
       -0.09443668 -0.18272561 -0.05347401 0.11811596
000300 17 88 1f 3e cd 84 20 bd f9 f1 8f bd ef d2 4b be
       0.15579258 -0.03918915 -0.070285745 -0.19904684
000310 ca f4 57 bc 03 28 ad bc f0 23 2e bd 06 d7 14 3d
       -0.013180921 -0.021137243 -0.04251474 0.036337875
000320 62 40 9c bc 06 70 17 3e b6 71 f2 3d 4f 3a 47 bd
       -0.019073669 0.14788827 0.11838095 -0.04863959
000330 d9 09 c2 bd 62 3b c1 bc 79 cc fb bc c3 3d ab bd
       -0.094745345 -0.023587886 -0.030737149 -0.083613895
000340 97 73 cf 3d a3 0a 11 3e 69 82 08 be 55 e3 4f bc
       0.10129469 0.14164214 -0.13330998 -0.0126884775
000350 dd 28 a8 bd fd 93 c6 bd 54 ef bf bc e7 5e 4e 3c
       -0.08210919 -0.09696195 -0.02342955 0.012595869
000360 4b 00 2b 3d 0d 5d 60 bd fe b2 54 3d a7 e1 f5 bd
       0.041748326 -0.05477624 0.051928513 -0.120059304
000370 4f 3a 83 bd 0e 89 24 3e 43 02 24 be 19 db 35 3d
       -0.06407606 0.16067907 -0.16016488 0.0443984
000380 8e 61 14 bc 17 fd bd bd cb 23 28 3c d3 8d 74 3c
       -0.009056462 -0.09276789 0.01026244 0.014926392
000390 47 90 e5 bb dc 40 1c be 80 43 5c 3e d3 f4 c0 bc
       -0.0070057246 -0.15259117 0.21510124 -0.023554241
0003a0 a7 16 40 3e 73 5d 0f bd 58 85 29 bb 97 ee 5d bd
       0.18758641 -0.03500123 -0.0025866833 -0.054182615
0003b0 97 d1 8d 3c 37 dc 0b 3e 61 f9 bd bd 51 1c 19 bd
       0.017311854 0.13658224 -0.09276081 -0.03738052
0003c0 e4 f5 7d bd ea 7f 6e 3d 52 c1 4b 3d b1 72 f1 bd
       -0.062002078 0.058227457 0.04974491 -0.11789454
0003d0 e8 55 3e be e9 72 4c 3d ad fb 8f bd 0b 6d 81 bd
       -0.18587458 0.049914274 -0.07030425 -0.063196264
0003e0 df 88 4e bd 5f 29 fe 3c 6c be e4 3c 1d 38 76 3d
       -0.0504235 0.031025587 0.027922831 0.060112108
0003f0 b8 7a 73 3d fd 57 54 bc 59 5c a8 bb da 7e 5e 3d
       0.059443206 -0.012960431 -0.005137962 0.054320194

fc3.bias f4 [200]
000000 a9 fe d4 3f f9 6e 80 3d 09 73 bf 3b 1f 00 d1 3f
       1.6640216 0.06271166 0.0058425707 1.6328162
000010 5f 12 78 bc af f4 d3 3f 91 84 bc 3f c0 00 4a 3c
       -0.015141099 1.6559047 1.4727956 0.01232928
000020 d0 cd a6 bd bc 5f ea 3f 43 2c d3 3f c4 3f cb 3f
       -0.08144724 1.8310466 1.6497883 1.5878835
000030 9c 6f 00 40 22 04 cc 3f 80 26 db 3f b5 a8 98 3d
       2.006812 1.5938761 1.7121124 0.07454053
000040 bf be dc bd 1a 76 ed 3f b1 0d 9c 3d 7e 5c cb bd
       -0.107785694 1.8551667 0.07619799 -0.09929751
000050 13 1c be 3f ef 03 aa bb 69 50 b4 3c 39 bd b4 bd
       1.4852318 -0.005188457 0.022010999 -0.08825154
000060 2d 5a 52 bc e8 aa b1 bd 1d 6f dc bd 34 a1 bd bc
       -0.012838882 -0.08675176 -0.10763381 -0.023148157
000070 db ca ef 3f 33 e4 8d bd a9 33 f3 3f fd 4c c3 3f
       1.8733782 -0.06928291 1.900014 1.525787
000080 4f bb e1 3f ba 5a 2c bd f0 ef d5 3f 56 1f f2 3f
       1.7635287 -0.04207871 1.6713848 1.8915813
000090 f0 4d d5 bd a7 0f eb 3f 35 61 0c 3c ad c2 02 bd
       -0.10415256 1.8364152 0.008568098 -0.03192394
0000a0 bd 94 11 bd 2a 06 d1 3f a3 ea 7f 3d 14 11 ef 3f
       -0.03554224 1.6330006 0.062479626 1.8677087
0000b0 47 ff 88 bc a4 2a d5 3f e2 85 51 bd f1 82 dd 3f
       -0.016723288 1.6653638 -0.05115307 1.7305585
0000c0 e2 99 d3 3f 82 2c df 3f de 94 ad bd 68 87 b4 3f
       1.6531336 1.7435458 -0.0847566 1.4103823
0000d0 0a 03 e3 3f 98 28 33 3d a7 7f 63 bc 14 9f 8b 3d
       1.7735302 0.043739885 -0.013885415 0.06817451
0000e0 b4 4a d9 3f 45 4d 5c bd f4 b1 ef 3f 6b 8f fd 3f
       1.6975923 -0.053784627 1.8726182 1.9809393
0000f0 3f 25 7d 3d 7a 01 f3 3f 4f 6f d1 3f 23 db f0 3f
       0.0618031 1.8984826 1.6362094 1.8816875
000100 fb 14 15 bd b7 d0 70 3d 43 fd c9 3f 3f db cc 3f
       -0.03639696 0.058792796 1.5780414 1.6004409
000110 18 f2 cf 3f 53 22 e6 3f bc 2d dd 3f f6 86 d3 3f
       1.6245756 1.7979225 1.7279582 1.6525562
000120 05 96 f5 3f 1d 0c e8 3f 8b 5b cd 3f 00 f8 e4 3f
       1.9186407 1.8128697 1.6043562 1.7888184
000130 94 93 e5 3f d6 a1 95 3d a5 c3 bd 3f 9e c0 3c bd
       1.7935662 0.073062584 1.4825331 -0.04608213
000140 d7 19 d4 3f a3 56 e7 3f d7 b7 f1 3f 69 4b cf 3f
       1.6570386 1.8073314 1.8884228 1.6194888
000150 c8 41 e8 3f 69 3f 54 3d 44 ab d3 3f 6d c8 e3 3f
       1.8145075 0.051818285 1.6536641 1.779554
000160 3f 3b d1 3f 10 7e 3f bd ba 54 ca 3f b0 64 b6 bc
       1.6346205 -0.046751082 1.5807106 -0.022264808
000170 81 e9 e9 3f 4b e6 de bc ed c6 c4 3f 3f 14 27 3d
       1.8274385 -0.027209422 1.5373207 0.040790793
000180 09 9e bf 3f 86 75 ea 3f ec 88 f1 3f 9a c7 e9 bc
       1.4970104 1.8317115 1.886991 -0.02853756
000190 9c 12 fb 3f 40 bc 72 3d 7b d9 c6 3f 57 c8 ad 3c
       1.9615054 0.05926156 1.553512 0.021213694
0001a0 ca 4d d7 3f af 52 ca 3f a1 78 d4 3f b4 cc 9e bd
       1.6820614 1.5806483 1.6599313 -0.07753888
0001b0 02 78 d4 bd 63 03 c4 3f f8 1b 02 40 a9 cf d3 bd
       -0.10374452 1.5313534 2.032957 -0.103423424
0001c0 b5 bd 1e 3d 8c 70 8d 3d 2f e8 bc bd cc 75 d2 3f
       0.038755137 0.06906232 -0.09223973 1.6442199
0001d0 bb 67 cd 3f 30 61 ed 3f 8a b0 48 3d 27 2d d1 3f
       1.6047281 1.8545284 0.048996486 1.6341904
0001e0 fc db 54 3d 47 35 00 40 6e b9 66 bd 69 94 da 3f
       0.051967606 2.0032518 -0.056329183 1.7076541
0001f0 cf b6 8e 3d f8 93 43 3d 00 f1 f7 3f ee 65 e8 bd
       0.06968462 0.047748536 1.9370422 -0.113475665
000200 ce aa d0 3f ac 8a 89 bc 5f 90 c3 bd c5 09 d9 3f
       1.6302125 -0.016789757 -0.09549021 1.6956106
000210 06 74 97 3d 46 5c 8b 3d dd b5 c4 3f 65 0e e0 3f
       0.073951766 0.06804709 1.5368 1.7504393
000220 34 1a e9 3f 40 12 cf 3c ed 58 f9 3f 50 27 24 bc
       1.8211122 0.025277257 1.9480263 -0.010019138
000230 48 8c e0 3f fe 50 e8 3f 87 e9 ca 3f 89 3c c9 3f
       1.754281 1.8149717 1.5852517 1.5721599
000240 8e 9b a1 3d 59 2a f1 bd 0b b4 5a 3c a3 dc b4 bd
       0.07890998 -0.11775655 0.01334859 -0.088311456
000250 6d 9f 1d 3c be 38 5d bd 1c 74 b5 bd 9c 8f 31 bc
       0.00962053 -0.05400919 -0.08860037 -0.010837462
000260 10 29 93 bd 82 da 0a be ac 94 e7 3f ad fd e6 bd
       -0.071855664 -0.13559917 1.8092246 -0.112788536
000270 78 58 c4 3f 7e d7 1b 3d 70 d4 8a bd d4 e2 7d bc
       1.5339499 0.038047306 -0.067788005 -0.015495975
000280 6b 8a f8 3f 52 47 f7 3f 44 66 da 3b c6 4c f3 3f
       1.9417242 1.931864 0.006665023 1.9007804
000290 c2 88 26 bd 66 14 fb 3f 6a 30 c8 3f 90 4d ff 3f
       -0.040657766 1.96156 1.5639775 1.9945545
0002a0 95 f1 8f 3d e1 07 cb 3f c6 94 f9 3f 55 b4 e9 3c
       0.070285 1.586178 1.9498527 0.028528372
0002b0 6c 36 b2 3f 67 60 e6 3f f3 ba f6 3f fb 5c 70 bd
       1.3922858 1.799817 1.9275802 -0.058682423
0002c0 b9 ee ef 3f 6d f3 7d 3d 6e 70 e1 3f 01 90 c6 bd
       1.8744727 0.061999727 1.7612436 -0.09695435
0002d0 0a 7e da 3f 52 eb 67 3d 6f d6 f0 3f 59 ce b5 3c
       1.7069714 0.056620903 1.881544 0.02219312
0002e0 ad bc d3 3f 75 2a d8 3f 58 cc d2 3f d9 aa ce bd
       1.6541954 1.6887957 1.6468611 -0.1009118
0002f0 c4 f8 c3 3c 93 f6 bc 3f ab aa d1 bc fe e4 e8 3f
       0.023922332 1.4762748 -0.025594076 1.8194883
000300 01 6b 74 bd dc 7d c0 3f 07 15 c0 3f 13 29 bc bd
       -0.05967236 1.5038409 1.5006417 -0.09187522
000310 4b e8 d6 3f 9d 03 f3 3f f3 e7 e1 bd 18 ed e3 3c
       1.678964 1.8985478 -0.11030569 0.027823016

out.weight f4 [20, 200]
000000 67 48 64 3e db cf 53 be b2 64 24 be fb ca 29 3e
       0.22293244 -0.2068476 -0.16054037 0.16581337
000010 25 bf b6 be 64 d5 61 3e fb 11 a4 3e 2d 7b 86 bc
       -0.35692707 0.22054058 0.32044968 -0.016416157
000020 2f f5 b4 be 47 70 bf 3d b3 41 a1 3e 2c d9 43 3e
       -0.3534331 0.09347587 0.31495437 0.19125813
000030 5d 43 35 3e 03 ef 6d 3e 98 4f aa 3e 6b 80 95 be
       0.17701478 0.23235707 0.3326385 -0.29199538
000040 46 a9 71 be 09 a1 8d 3e eb a6 8d be 4a 3a 98 be
       -0.23599729 0.27661923 -0.2766641 -0.2973197
000050 be 82 6e 3e 4d 91 22 be 11 56 0a be 43 82 8f be
       0.23292062 -0.1587574 -0.13509394 -0.2802907
000060 17 44 39 bc 45 86 2b be db bc 29 bc 0a 3b 55 be
       -0.011307738 -0.16750439 -0.010359968 -0.20823303
000070 ad 07 06 3e 78 e1 c7 be e8 dc a8 3e 6a 58 4a 3e
       0.13088866 -0.39039207 0.32981038 0.1976029
000080 2d 0e 4a 3e bd 26 b6 be 69 96 8a 3e 0d 9e d9 3d
       0.1973197 -0.3557643 0.2706788 0.10625849
000090 41 df 3f be c2 2b e7 3d 0a 1c 80 be 62 26 3c be
       -0.18737508 0.11287643 -0.25021392 -0.18374017
0000a0 45 71 16 be 25 66 b3 3e 8b ae 2d be 0c a7 b5 3e
       -0.14691646 0.35038868 -0.16961114 0.3547901
0000b0 2f eb 92 be 66 d4 b4 3d 29 05 4f be 5a 12 40 3e
       -0.28695056 0.08829574 -0.20216812 0.18757
0000c0 44 6c 73 3e 92 96 47 3d 86 db 9e bd 3b cd d0 3e
       0.23771769 0.04872758 -0.077567145 0.40781578
0000d0 30 4e a2 3e 7c b7 61 be 42 44 a6 be 5c ee 9d be
       0.31700277 -0.2204265 -0.32473952 -0.30845916
0000e0 b2 8a 58 3e 99 a9 2c be 97 ca 9b 3e 0c b5 92 3e
       0.21146658 -0.16861571 0.30428 0.28653753
0000f0 2e 24 23 be 9b 67 97 3e 5e be 27 3e c5 db cc 3d
       -0.1593177 0.29571232 0.16381213 0.10002855
000100 53 b5 ea bd 4a c8 2b be ec 58 a5 3e d9 c5 aa 3d
       -0.11460366 -0.16775623 0.32294405 0.08338518
000110 5a f3 a7 3e 97 af 6a 3e 3b bc af 3e c4 67 1e 3e
       0.3280285 0.22918545 0.34323296 0.15469271
000120 7b 78 c5 3e 18 cf 29 3e 1a d0 b3 3d 39 ea c4 3e
       0.38568482 0.16582906 0.087799266 0.38459948
000130 3d 94 ec 3d 61 56 4e be 5e d8 85 3e a0 ec ae be
       0.11551712 -0.20150138 0.26141638 -0.34164906
000140 55 41 b3 3e 3c 71 e4 3d 64 ac ac 3e a3 62 9c 3e
       0.35010782 0.1115441 0.33725274 0.30544004
000150 14 b2 e8 3d f8 d8 2a be 30 2f 28 3e 67 32 97 3e
       0.11362091 -0.1668433 0.1642425 0.2953064
000160 37 4d 3f 3e 21 c3 a5 be 43 2f a4 3e bf 75 ee bd
       0.18681799 -0.32375434 0.32067308 -0.11643552
000170 f6 25 7f 3e e5 57 95 be d2 aa a8 3e 06 1f c3 be
       0.24916825 -0.2916862 0.32942826 -0.38109607
000180 ff 9c ef 3e 92 c8 65 3e ef a1 93 3e 50 e6 b7 be
       0.46799466 0.22439793 0.28834483 -0.35917902
000190 5c e4 19 3e 65 61 9d be 2f 1c ad 3e 95 6e aa be
       0.15028518 -0.3073837 0.33810565 -0.33287492
0001a0 9c 9d b0 3e e7 9a 27 3e f6 06 9e 3e fa 53 71 be
       0.34495246 0.16367684 0.30864686 -0.23567191
0001b0 63 d3 06 be 17 12 9b 3e ff cb 93 3e 1b 6a 96 be
       -0.13166575 0.3028724 0.28866574 -0.29377827
0001c0 b6 4c 42 be 0b 56 79 be 4c 27 2b be 16 43 ca 3e
       -0.18974575 -0.24349229 -0.1671421 0.39504308
0001d0 c4 b2 29 3e 8f 31 89 3e 00 79 af be 91 1e 6f 3e
       0.165721 0.26795623 -0.34272003 0.23351504
0001e0 01 c6 87 be 9c fe 23 3e c8 ca 57 be 11 ea c3 3e
       -0.26518252 0.16015095 -0.21073449 0.38264516
0001f0 c5 97 a8 be a3 92 9b be 7b 1c be 3e b2 38 da be
       -0.3292829 -0.30385312 0.37131104 -0.4262138
000200 d9 e7 b7 3e a1 06 a2 be 80 2f 37 be 57 1a 7f 3e
       0.35919073 -0.31645682 -0.17889214 0.24912392
000210 5d 73 32 be 31 33 94 be 19 31 1f 3e f9 73 63 3e
       -0.1742682 -0.28945306 0.15546073 0.22212209
000220 ec 83 40 3e e3 a9 0d be 53 c2 68 3e 24 af d0 be
       0.18800324 -0.13834338 0.22730379 -0.40758622
000230 1b ed a4 3d fc 7f b3 3d a6 6f c7 3e 92 94 86 3e
       0.08053037 0.087646455 0.38952368 0.26285225
000240 1b 4c 29 be 68 ac 99 be df ad c4 be cb ef 9e be
       -0.16532938 -0.30014348 -0.38413903 -0.31042323
000250 da 21 54 be b8 cf 6f be 93 1c 7c be 0a 3b 6f be
       -0.20716038 -0.23419082 -0.24620275 -0.23362365
000260 27 3c 76 be 83 9b 1d be 43 ab 55 3e b1 f3 9f be
       -0.24046384 -0.15391354 0.20866112 -0.3124061
000270 29 74 88 3e 29 80 11 be cc 73 f7 bc 29 ee 45 be
       0.26651123 -0.14209045 -0.030206583 -0.19329132
000280 e9 2e 9e 3e 4c 1b 51 3e 6e 14 52 be 43 db 95 3e
       0.30895165 0.20420569 -0.20515606 0.29268846
000290 26 96 27 be 39 2e 84 3e aa 66 b2 3e bc 6b b5 3e
       -0.16365871 0.25816515 0.3484395 0.35433757
0002a0 24 76 b0 be b1 68 0c 3e 8c 34 af 3e ac 00 5a be
       -0.34465134 0.13711812 0.34219778 -0.21289319
0002b0 c7 d7 81 3e 90 66 9d 3e 7a c2 94 3e ca c5 01 be
       0.25359938 0.3074231 0.29054624 -0.12673107
0002c0 d5 b7 8a 3e d6 ba 5f be 85 ad 33 3e f2 fa 22 be
       0.27093378 -0.21848616 0.17546661 -0.1591604
0002d0 ec 63 20 3e 0d 91 1c be e8 81 19 3e 60 0d 6c be
       0.15663117 -0.15289707 0.14990962 -0.23051977
0002e0 3e 6e a4 3e 57 c9 71 3e f7 6f 81 3e 45 b9 96 be
       0.32115358 0.23611961 0.25280735 -0.29438224
0002f0 bb d6 42 be 70 79 7d 3e e3 88 48 be bc f7 c2 3e
       -0.19027226 0.24753356 -0.19583468 0.3807963
000300 83 5e b5 bd 9a 8e 9f 3e 6c 26 cf 3e af ac 0b bf
       -0.08855917 0.31163484 0.40459 -0.5456037
000310 94 33 8e 3e f5 79 a5 3e 2f d8 92 be 03 84 99 be
       0.27773726 0.32319608 -0.2868056 -0.2998353
000320 e5 70 22 3e ef 10 33 be 9a f1 a2 be cb ac b2 3e
       0.15863378 -0.17486928 -0.31824952 0.34897456
000330 2f bb 8d be 24 aa 26 3e 46 22 99 3e 9a 33 d3 be
       -0.27681872 0.16275841 0.2990896 -0.41250306
000340 ca 12 8f be 22 0c 92 3e 02 35 c8 3e 2a 73 e8 3d
       -0.27944022 0.28524882 0.39102942 0.11350091
000350 46 2e 96 3e ff 4c b3 3e 5f cf 89 3e 94 f8 9f be
       0.2933218 0.3501968 0.26916024 -0.31244338
000360 04 fb c7 be c5 b0 bd 3e 78 98 ca bd c4 eb f0 be
       -0.39058697 0.37048927 -0.09892362 -0.47054875
000370 1d aa 37 3e 56 71 97 be 81 1c 6d be 2e 1e 0c be
       0.17935987 -0.29578656 -0.23155405 -0.13683388
000380 50 29 c2 be 32 82 e0 be 7e 2e a6 be f0 d6 c4 be
       -0.37922144 -0.4384933 -0.32457346 -0.38445234
000390 ff ce ba 3e 33 b6 1c be 30 ec 8d 3e a4 be 50 3e
       0.3648605 -0.15303878 0.2771926 0.20385224
0003a0 dc f1 94 3e 89 0b 08 be 10 79 0f 3e c7 3f 85 3e
       0.29090774 -0.1328565 0.14011025 0.2602522
0003b0 c4 fc 9b be 80 c3 54 3e 74 c5 b2 be 08 b9 86 be
       -0.30466282 0.20777702 -0.3491627 -0.26313043
0003c0 59 c4 1e be 51 76 2d 3e 7f a4 05 be bc f9 86 3e
       -0.15504588 0.16939665 -0.13051032 0.26362407
0003d0 e8 92 c3 be 4a 15 3f 3e 15 5b 42 be bd 0c 5c 3e
       -0.38198018 0.18660465 -0.18980058 0.21489234
0003e0 03 7c cf 3e dc c9 b6 3e 54 5b b9 be 16 99 9e 3e
       0.405243 0.3570088 -0.3620249 0.3097617
0003f0 4f c5 a5 3e 29 ed 83 be e5 b9 42 be d5 ca 3a be
       0.32377097 -0.25766876 -0.19016226 -0.18241437

out.bias f4 [20]
000000 58 c1 47 3e da 10 8b 3e ef 05 45 3e 0a 5b ec 3e
       0.19507349 0.27161294 0.19240545 0.46163207
000010 72 51 12 3e 22 88 6d 3e d1 7c 8b 3e ab 4f d2 3d
       0.14288881 0.23196462 0.27243665 0.10269102
000020 f4 45 af 3e 84 e5 8e 3e 98 9c 64 3e 85 e5 23 3f
       0.34233057 0.27909482 0.22325361 0.64022094
000030 be 6c f6 3e 3f 01 94 3e 82 94 f5 3e b8 e6 ac 3e
       0.4812984 0.289072 0.47964865 0.33769774
000040 19 45 8b 3f 8a 78 2e 3f 20 37 47 3f e7 46 14 3f
       1.0880462 0.6815268 0.7781849 0.5792069
